models/ppo_trained.pth (torch_old, 151021 bytes, 8 tensors)

log_std f4 [1, 4]
00000000: b712 e2be 38ec 04bf 7f2d 18bf 54e9 efbe
-0.44154903 -0.5192294 -0.5944442 -0.46857703

critic.0.weight f4 [512, 33]
00000000: 2f88 ffbc e6ff 303e 3358 27bd 0ded fabd
00000010: 620d de3d fd94 cd3d 33aa 71bd 70a9 f33c
00000020: 2be3 29be 6963 4cbe b60c 05be aa14 f63c
00000030: b187 11bd 7220 483d f9bb 873d bbef 4cbd
00000040: 5f96 c73e f7c8 e9bb eb5f 48be adb1 6fbd
00000050: 467e 133d 465c d13c 7952 a73d a098 1fbe
00000060: 6485 fe3c ffd7 28bd 182f 8f3d f832 a83e
00000070: c338 6abb f06a 27bd f112 5cbe 2afd 013e
00000080: e03b 32c0 0dd9 4e3e 3480 253e e30a 1abe
00000090: 881c 18bf 813a f83c a45e 12be 09dd 98bd
000000a0: 0ed6 f7bd acdd 5ebe 63ad a13d f819 923d
000000b0: 6392 bb3d c28b 83bd 9afc a2bd 8086 ca3e
000000c0: 0225 143e 4024 b1bf 9034 003e fcfa 313e
000000d0: 2876 36be 1d85 20bc 989c bdbd a13c bf3a
000000e0: deff 293c 86a7 373d 061d 473e 9c6a a13e
000000f0: dfe9 8f3e d2e9 273e 306f e03d 27d7 e9be
00000100: 40db 473c e922 e43f db60 c9be 681a 6f3e
00000110: 89d8 563e 9a0d e7bd dfc5 fa3d d0d6 aabd
00000120: 5b9f 523e e39f eebd fb6c 563e 582e 06bd
00000130: 36c1 6d3d 717f edbd ee21 ddbd 4bef e23e
00000140: f781 ab3e 25f4 6fbd 80ba 61bf 6e6f 883f
00000150: 39b3 c3be cebc 35be 4c17 81bd fc28 1cbe
00000160: 8fbe 8e3d bcb0 7b3d 123f d3bc c602 31bd
00000170: b913 f8be d8f2 263f ca27 bf3d 9a68 9b3d
00000180: de2c fbbe 0deb 00be cb0f 883f 06b5 553e
00000190: 0892 af3d 552c 4b3e 9e41 acbf 9cae 14be
000001a0: fb4b e0bd b52a f2bc caa7 8d3c 5e3f d13c
000001b0: 1cf6 10be 9348 1dbb 75f5 593d b31c a3bc
000001c0: e702 a2be 35e6 1d3e d0ce c7bd 082a 7c3e
000001d0: 5e34 efbe efe5 233e ca6c 41bf 05d4 fbbb
000001e0: 6fba 8cbc 66a7 04be b107 71bd c8c9 ae3c
000001f0: ed95 3fbb 162f b33d 5c32 833f b606 ee3d
00000200: 406f 06bc 43b3 6dbf 0cad fd3d a9d4 c43e
00000210: b4f0 8cbe 60ee cdbe 17c8 debe c4d2 033f
00000220: 4184 f2bd c857 0b3f 59bc 43be 295c f73c
00000230: 4332 c5bd 94d2 913d 6c21 e0bd a042 1c3d
00000240: 5e74 733b d89e 873e adb1 9c3d c281 f83d
00000250: cc0b f83e defc 773e 6c62 273f 89da 4abe
00000260: 08e1 d9bc fa8e 67bb 47ba 453d 3083 d2bd
00000270: 7110 c43d 97cf 753c 2a29 efbd 9dae 0b3e
00000280: c450 353e f88e 6e3d 3ced 88be 569f 1abe
00000290: ec8f 593e 1c62 4dbe 08d1 c33e a71c e4be
000002a0: 5b69 27be d19e a4bd 7de0 20bf 543b 4dbe
000002b0: ce30 e1bc 607c edbe eab2 f23d 5250 553c
000002c0: 02ae 2d3c 818f 07bc 3df2 83bd bc95 873d
000002d0: 7575 0fbd 7213 a93e 829f ae3d a564 dd3e
000002e0: 5f9a aabe 7710 013b b604 c43b 5553 5bbb
000002f0: 8de3 92bc de2f 233c c925 9a3c a3f6 e23d
00000300: 75a6 8f3f c561 643e 00eb 41bb b9e8 86bf
00000310: e7bd 26be 612b ca3f fde5 95bd eaaa 143d
00000320: debe 1b3e 1ed4 0ebe b310 2c3e 87f7 be3e
00000330: 0db2 12be f018 ddbc 8411 1c3e 546d 56be
00000340: 5978 633d 9f8e 7ebc babe d83a d890 933c
00000350: b433 d23d 33a5 3cbd cfe1 27be ffa9 02be
00000360: e4f1 cc3e 3522 2abf 3b4c 4bbd f49b 023d
00000370: daaa debb 62f8 283d 9eba 053d 7ff0 b8bc
00000380: 5c84 8a3c 7f19 4b3f b04c 2dbd e647 0c3e
00000390: 43bf 5fbf 0048 8a3d 6d85 083f 6bfe 9cbe
000003a0: 4528 003f 0e03 55ba e3af 783d 63ab 883c
000003b0: 9322 043d aac2 9c3d b0f0 603e ccb4 cebe
000003c0: 2594 1c3e 820c 783e 4316 9d3d e6c7 c4bd
000003d0: 59f5 7c3e bf06 883e 8ca5 44be 2f2c dbbe
000003e0: d239 8c3f c4e8 363f 2915 3ebf ecbe 7abd
000003f0: 44fc 06be fbdd 733e e5d9 8cba 5785 473d
-0.031192867 0.17285118 -0.040855598 -0.12252245 0.10842396 0.10038183 -0.059000205 0.02974388
-0.16590564 -0.19959797 -0.1299313 0.03003915 -0.035529796 0.048859067 0.0662765 -0.050033312
0.38981912 -0.0071345526 -0.1956784 -0.058519054 0.036009096 0.025556695 0.08170027 -0.15585566
0.031069465 -0.041221615 0.06991404 0.32851386 -0.00357394 -0.040873468 -0.214916 0.1269423
-2.7849045 0.20199986 0.16162187 -0.15043215 -0.59418535 0.030301334 -0.14293915 -0.07464034
-0.121013746 -0.21764249 0.07894399 0.071338594 0.091587804 -0.06423141 -0.07958336 0.3955574
0.14467242 -1.3839188 0.12520051 0.17380899 -0.1781851 -0.009797362 -0.092583835 0.0014590212
0.010375945 0.044837497 0.19444665 0.3152665 0.28108117 0.16397789 0.10958707 -0.4567196
0.012198269 1.7823154 -0.39331707 0.23349917 0.20981039 -0.11281891 0.12244772 -0.083417535
0.20568602 -0.1165159 0.2094001 -0.03275904 0.05804559 -0.11596573 -0.10797487 0.4432319
0.33497593 -0.058582444 -0.881752 1.0659006 -0.38222674 -0.17747805 -0.06303272 -0.1525001
0.0696994 0.061447844 -0.02578691 -0.043215536 -0.48452547 0.652143 0.09333761 0.075883105
-0.49057668 -0.12589665 1.062982 0.20869836 0.08572775 0.1984113 -1.3457525 -0.14519733
-0.10951992 -0.02956138 0.017291922 0.025542911 -0.14156383 -0.0023999556 0.0532126 -0.019911146
-0.3164284 0.15419848 -0.09756243 0.24625409 -0.4671964 0.16005681 -0.75556624 -0.007685187
-0.017178742 -0.12954482 -0.058845226 0.021336451 -0.002923365 0.08749215 1.0249743 0.11622374
-0.008205235 -0.92851657 0.12386522 0.38443497 -0.27527392 -0.40220928 -0.4351203 0.5149348
-0.11841632 0.5443082 -0.19114818 0.030195313 -0.09628727 0.07120243 -0.10943875 0.038149476
0.0037148218 0.26488376 0.076510765 0.12134124 0.484465 0.24217555 0.65384555 -0.19809927
-0.026596561 -0.0035333023 0.04827335 -0.10278928 0.095734484 0.015003107 -0.11677773 0.13640828
0.17706591 0.058241814 -0.26743495 -0.15099844 0.21246308 -0.20056957 0.38245416 -0.4455311
-0.16348784 -0.08038104 -0.6284254 -0.20042163 -0.027489092 -0.46383953 0.118505314 0.013019638
0.010600569 -0.00827396 -0.06442688 0.066203564 -0.035024125 0.33022648 0.085265175 0.43240848
-0.333209 0.0019693652 0.005982007 -0.0033466418 -0.01793077 0.009960143 0.018816845 0.110821985
1.1222674 0.22302921 -0.0029589534 -1.0539771 -0.1628338 1.5794488 -0.073192574 0.03629581
0.15209529 -0.13948104 0.16803245 0.37298223 -0.14325733 -0.02698943 0.15241057 -0.20940143
0.055534694 -0.015536933 0.0016536333 0.018013403 0.10263768 -0.046055984 -0.16394733 -0.12760161
0.40028298 -0.66458446 -0.049633246 0.03188701 -0.0067952694 0.0412525 0.032648675 -0.022575615
0.016908817 0.7933578 -0.042309463 0.13699302 -0.8740122 0.06752014 0.5332859 -0.30662856
0.50061446 -0.00081257604 0.060714614 0.016683286 0.032259535 0.07654317 0.21966815 -0.40372312
0.15290888 0.24223521 0.07670262 -0.0960844 0.24702968 0.26567647 -0.19203776 -0.42807147
1.0955145 0.7144892 -0.7425104 -0.061217234 -0.13182169 0.23815148 -0.001074609 0.048711147

critic.0.bias f4 [512]
00000000: aad5 93be db24 09bf ba95 30bf 553c 61bf
00000010: c326 b2be c175 8ebf 0bb7 28bf 83b2 8abf
00000020: f0f6 57bf f70e 0fbf aef5 4abf fc5c 16bf
00000030: 509e 87bf 4d50 5fbf d1b9 44bf 2934 6cbf
00000040: 1cb8 64bf ebe3 67bf dd2a 96bf ace7 33bf
00000050: dff8 86bf 787f 47bf 8c20 5ebf 6f03 96bf
00000060: a476 4ebf 7f8f 40bf 3d48 5dbf ff14 56bf
00000070: 99a7 82bf 1ba6 2bbf fd7a 34be 15f0 35bf
00000080: aaf3 bbbe 8291 eebe 5a8c 83bf 828e 20bf
00000090: 0fdc 62bf 348b 6bbf d268 73bf 28a9 89bf
000000a0: 30c6 39bf 3f5d e0be 8e5c 63bf 7ddf 7bbf
000000b0: 4510 1dbf c263 3cbf c96d 5dbf d79f 62bf
000000c0: 2af3 4ebf e5d2 37bf f8db 91bf 9dbc 79bf
000000d0: 3d65 6abf 272e 6ebf ebb2 08bf 95cd 0ebf
000000e0: cb12 91bf 339f 89bf 54a0 88bf 84c2 7abf
000000f0: c9be dcbe d436 18be 97c1 90bf 8434 e9be
00000100: 4877 98be eafa 0ebf 74cc 3cbf f183 5bbf
00000110: ca86 1fbf 8526 3fbf ec05 94bf 4f67 8dbf
00000120: fd3c 1fbf c679 8fbf 24bd 62bf 3abd 5abf
00000130: fd6f 60bf 16ee 43bf 3f12 61bf 25c3 cf3c
00000140: fd30 a7be e096 2cbf b168 7bbf f3e6 8cbf
00000150: 3a84 febe 9daa 9dbe d8e1 76bf 3bdc 80be
00000160: bd26 5bbf 4525 82bf 2a9d 6ebf 53a1 70bf
00000170: 2823 e7be 0bf1 50bf 7a4c 18bf 3501 7cbf
00000180: 5695 1bbf e90a 97bf 6300 4abf ed1a 6dbf
00000190: efcd 4dbf e8d6 46bf c3ae 74bf ee95 8cbf
000001a0: f418 5fbf 9c86 11bf f079 5ebf 7ad6 10bf
000001b0: c5c5 27bf 21a7 55bf f7d3 6dbf 501f 40bf
000001c0: 4db3 43be 1dd8 5fbf 267c 87bf f6a9 83bf
000001d0: c85c 86bf ca99 8fbf 68c9 23bf 3bcd 4fbf
000001e0: e56d 98bf fa66 5bbf 4139 6bbf 417b 0abf
000001f0: 4c71 7ebf dec2 43bf beea 69bf 2af3 c4be
00000200: a637 16bf a9e9 37bf ff3e 69bf dca7 09bf
00000210: 024d 2abf 247a 57bf 4eea 50bf afae 5fbf
00000220: 69d7 01be 8340 41bf a389 49bf 34dd 4bbf
00000230: 78b2 8cbf 6de2 15bf 0086 3fbf 9912 2abf
00000240: 44be 07bf 52da 84bf 7c6e 60bf 53ca 64bf
00000250: 6387 acbe b0a3 0fbf dcd1 57bf fa28 1abf
00000260: 5625 4dbf f7bf b43e d790 61bf 18fa 6ebe
00000270: d3ae 73bf 9546 97be a200 eebe a6fd 81bf
00000280: ca88 50bf 7064 57bf d131 8abf 947a 7abf
00000290: 310c f0be 35c5 01bf 2848 45bf e8c5 2fbf
000002a0: d02f 66bf f130 79bf 7b08 78bf 7acf 0fbf
000002b0: 3627 86bf 77bd 0fbf 8dea 89bf 3513 47bf
000002c0: b864 39bf e994 5abf 21df 6fbf 13d7 9dbf
000002d0: 7d14 83bf 0100 4ebf 9f89 61bf 15bd 56bf
000002e0: b5ca 98bf 98c2 83bf 0ccc fbbe 3ceb 12bf
000002f0: c158 86bf be38 3ebf 5454 e6be 92b6 9cbf
00000300: acdf 6cbf 817a 34bf b2dd 1dbf dc17 86bf
00000310: 95b9 8ebf 5acf c9be da99 89bf 2166 adbe
00000320: 4e1d 7cbf 9e6e 67bf ca11 0fbf 21df 6dbf
00000330: 3724 15bf 46d0 85bf ebed 39bf 4339 60bf
00000340: fea7 50bf b9a3 59bf f0b5 35bf 0b02 2fbf
00000350: 5429 67bf 07d0 31bf 2c7f 2dbf b618 60bf
00000360: 5a15 80bf bc6b 7fbf d600 b13d 80af 2cbf
00000370: a4ba 32bf 063b efbe dd71 7abf 0981 7ebf
00000380: b527 6abf 91f8 c3be e767 87bf f72a 88bf
00000390: f049 81bf 997e 02bf f47d 8dbf c986 5bbf
000003a0: 0193 54bf dc43 f0be dd53 9ebe c8ee d4be
000003b0: e9ef 05bf 7271 60bf 259b 34bf 6d91 87bf
000003c0: fce0 36bf f1f0 1f3e 31d3 5cbf 5a88 12bf
000003d0: 55ac 8abf 33b8 4bbf da4c 36bf 866c 1abf
000003e0: e882 cdbe dd17 f8be 85be 67bf 5a66 4dbf
000003f0: dbf5 5abf 6a5b b9be 40d7 4cbf 670f 75bf
-0.2887395 -0.5357186 -0.68978465 -0.87982684 -0.34795198 -1.1129686 -0.659043 -1.0835727
-0.8436117 -0.5588221 -0.7928113 -0.5873563 -1.0595188 -0.87231904 -0.76846033 -0.9226709
-0.8934343 -0.9058215 -1.1731831 -0.7027538 -1.05447 -0.77928877 -0.8676841 -1.1719798
-0.8064978 -0.7521896 -0.8643835 -0.8362579 -1.0207397 -0.6705033 -0.17625041 -0.7106946
-0.36709338 -0.4659539 -1.0277207 -0.6271745 -0.8861703 -0.9200928 -0.9508182 -1.0754747
-0.72568035 -0.4382114 -0.888131 -0.9838789 -0.6135295 -0.7358972 -0.86495644 -0.88525146
-0.8083979 -0.71806175 -1.1395254 -0.97553426 -0.9156073 -0.9303917 -0.5339801 -0.55782443
-1.133386 -1.0751709 -1.0673928 -0.9795306 -0.43114308 -0.14864665 -1.1309079 -0.4554788
-0.29778504 -0.55851614 -0.7374947 -0.857482 -0.62315047 -0.7466815 -1.1564307 -1.1047152
-0.62202436 -1.1209037 -0.88569856 -0.85444987 -0.8767088 -0.76535165 -0.87918466 0.025361607
-0.32654563 -0.67417717 -0.9820662 -1.100798 -0.49710256 -0.3079423 -0.9643836 -0.25168023
-0.85605985 -1.0167624 -0.93208563 -0.9399616 -0.4514401 -0.816178 -0.59491694 -0.9843934
-0.60774744 -1.1800205 -0.7890684 -0.9261921 -0.80392355 -0.7767167 -0.95579165 -1.0983255
-0.8714745 -0.5684602 -0.8690481 -0.56577265 -0.6553615 -0.83458143 -0.9290156 -0.7504778
-0.19111367 -0.8743914 -1.0584762 -1.0286243 -1.0497065 -1.1218808 -0.63979197 -0.8117253
-1.1908537 -0.85704005 -0.9188424 -0.5409432 -0.9939163 -0.7646922 -0.91373813 -0.3846677
-0.5867866 -0.7184091 -0.9111175 -0.5377176 -0.66523755 -0.84170747 -0.8160752 -0.8737592
-0.12679829 -0.7548906 -0.7872564 -0.79634404 -1.0991964 -0.58548623 -0.7481384 -0.6643463
-0.530247 -1.0379126 -0.87668586 -0.8937122 -0.33697042 -0.5610914 -0.84304595 -0.60218775
-0.80135095 0.35302708 -0.88111633 -0.2333759 -0.95188636 -0.29546037 -0.46484858 -1.0155532
-0.81458724 -0.8413763 -1.0796453 -0.9784329 -0.468843 -0.5069154 -0.77063227 -0.68661356
-0.89916706 -0.97340304 -0.9688794 -0.5617596 -1.0480716 -0.56148475 -1.0774704 -0.7776368
-0.7241931 -0.8538347 -0.9369984 -1.233126 -1.0240628 -0.80468756 -0.8810062 -0.83882266
-1.1936861 -1.029376 -0.49179113 -0.5739019 -1.0495836 -0.7430533 -0.44986212 -1.2243216
-0.92528796 -0.70499426 -0.61666405 -1.0476031 -1.1150385 -0.3941601 -1.0750077 -0.3386698
-0.98482215 -0.90403163 -0.5588652 -0.9291859 -0.58258384 -1.0454185 -0.7262866 -0.87587374
-0.81506336 -0.85015446 -0.7098074 -0.6836249 -0.90297437 -0.6945805 -0.67772174 -0.87537706
-1.0006516 -0.99773765 0.086427376 -0.6745529 -0.6981604 -0.4672472 -0.9782999 -0.9941564
-0.9146684 -0.3827558 -1.0578583 -1.0638112 -1.0100689 -0.5097442 -1.1054063 -0.8575254
-0.8303681 -0.46926773 -0.30923358 -0.41588426 -0.523192 -0.87673104 -0.7054923 -1.0591255
-0.7143705 0.15619256 -0.8625975 -0.57239306 -1.0833842 -0.7957794 -0.71211016 -0.60321844
-0.40138936 -0.48455706 -0.90525085 -0.802343 -0.85531396 -0.36202556 -0.80015945 -0.9572663

critic.2.weight f4 [1, 512]
00000000: 6f09 08be 32f4 4a3d 2684 e53d 691f 38be
00000010: d7e6 213d e29c c5be 2628 283d a276 ea3d
00000020: de47 1cbd 5745 27be 62ef 6a3e fce7 4d3d
00000030: b802 b03d 2be1 a0be 02c0 4d3d bfad 06be
00000040: 1a15 04be b950 30bd a045 063e c2ae 57be
00000050: 2c9a d9bb 7980 98bd 11e9 99be d008 373e
00000060: 56d1 7cbd ac25 193e 8413 eeba 4de5 f53d
00000070: 16c8 49be 0036 b0bd a83d 893d d667 25bd
00000080: a406 533d f039 c13d f0c4 6ebe 7305 e03d
00000090: 38e3 473c 067f 8b3d 8842 663e 2ca8 26be
000000a0: 61c3 203e 3ce5 3a3d 5672 0c3e 5ae7 5bbd
000000b0: bc79 c03b cbce 7f3d 7dc9 a53d 71e6 1abe
000000c0: a020 b63d d0b0 a23b c761 c8be 272d ce3d
000000d0: 0ce8 1ebe c033 513a 3c3d b5bd a30e 2abd
000000e0: 27bf c83b 7179 ce3d fe5c 1bbd fecc cfbd
000000f0: 66ca 193d 2265 07be 03e5 fa3b 17bb 80bd
00000100: 73a7 92bd 3b5b 5b3e 6e2c 11bb 78e1 8f3d
00000110: bb26 eebb 8db1 fd3c a784 5d3d 0fe0 2ebe
00000120: 898f 11be 81de e2bc 6752 1c3c a2b7 0f3e
00000130: 8147 c1bd 1314 f2bd a63b ff3d 8240 9b3d
00000140: 7d4b 95bd 6658 ebbb ed93 b9bb 7176 f43b
00000150: d9c0 1abe 5db7 dbbd 40f9 f6bd b805 cb3d
00000160: 4eee 373e ae1f 25be 8a52 0b3e 9ff5 883d
00000170: 8ca1 ad3c d1c6 a83e 6ba1 fdbd 8a8a 8e3c
00000180: 5485 353d 3186 babe a125 3cbe d03f 34bb
00000190: d62b 013a 42ee a73e 1671 25be 51bf 92be
000001a0: 4dca bb39 3074 bf3d 775c 0fbb 9c63 e43d
000001b0: 09e7 753d 179d a93c 24cd e43d 97ef 51bd
000001c0: 7ff4 b53c 6d97 13bd 4d30 993c 69fa 2fbe
000001d0: a2b9 5f3a 335e ad3a b355 63be 41c3 31be
000001e0: 2617 39bd 88a1 213d 71d3 a6bd 74cd b2bc
000001f0: d602 233e b7d7 a83d 4cd7 e0bd 6ab8 04be
00000200: 96a4 8c3d 23b4 c2bd f896 f7bd c212 8e3d
00000210: 7b12 173d f713 cc3d b228 2dbe d970 073e
00000220: 1ed5 993d 46db 9fbd 7f62 683d 0d6d 173d
00000230: a877 103c 1c07 423e ba76 d4b8 bdfd eb3d
00000240: 62ad 5a3d d893 1cbe 9647 a93d 2b53 f83d
00000250: e03c 303e 1de3 8d3d a038 c3bd 42f1 2b3d
00000260: ae0a a03d a278 ca3d 9158 dd3b 899d 55bd
00000270: f6b7 d4bd 53e4 53bd 7429 f0bd 2005 323e
00000280: 003a 78bd f63c f6bb 9cf9 0abe 13f1 b53d
00000290: 9a8d 783d f6e2 a43d cdd6 363e bf71 f63d
000002a0: 87cb 023c b75f b6bd dc4c f53d 6ef1 81bd
000002b0: ccce 6f3e 74c4 4b3e 1018 7c3d cc03 4e3e
000002c0: 9564 c53d 1b89 57bc 91d1 96be 8b2b 64be
000002d0: 86e9 7f3e 75a8 cebd 39b0 343e 398b 9c3d
000002e0: 9f61 b13d 101c 5fbe 4061 22bd c97b 45be
000002f0: 6f33 2fbe 6d4b b33c 3ade a3bd ab9a 87be
00000300: 2620 713c 07d2 5f3d e905 1e3e 2c76 55be
00000310: e9cf 9e3b 302c a2bd 96d4 ab3b 7df2 49bd
00000320: 2c93 10bd 311b 55be 0b5e f03c b04c 55be
00000330: f161 b7bd b052 1cbe 9e89 aebe 61af 843d
00000340: 72b0 3fbe 1b5d 03be abe2 8ebe 6724 38be
00000350: 6786 afbe 1f95 6c3d dfd8 063d b4a6 5a3d
00000360: 0b30 44bd d41a 8bba 86ff 5f3d 8ce6 47be
00000370: ac7c 04be af40 2f3d 9457 32bd fd14 14bd
00000380: 4333 883d 5a6a 34be b6af f8bd 6817 8dbd
00000390: e973 333e bb49 d9bd 3752 043e 965d 8bbe
000003a0: 1acc 18be f380 a03d 7c04 353d 9ce3 f63c
000003b0: 5a49 5dbd eec4 c7bd 8ff4 263e 187e 39be
000003c0: 1871 903d 248d dabd cdcf 1bbe 8272 023d
000003d0: d81e dbbd cff2 43be 4192 e03d 0018 8cbd
000003e0: fe87 bab9 d4ae 473d 8480 06be 5a76 163e
000003f0: cc74 2ebb a43d b9bd 0ea9 2fbe 2d0c 35be
-0.13284849 0.04954929 0.11206846 -0.17980732 0.039526787 -0.38596255 0.041053914 0.11448409
-0.038154475 -0.16335045 0.2294288 0.050270066 0.085942686 -0.3142179 0.05023194 -0.13152216
-0.12898675 -0.043045733 0.13112497 -0.21062759 -0.006640693 -0.07446379 -0.30060628 0.17874455
-0.061723076 0.14955777 -0.0018163775 0.12006626 -0.19705233 -0.0860405 0.06701213 -0.04038223
0.051520005 0.09434879 -0.23317313 0.10938539 0.012200169 0.06811337 0.22486317 -0.1627509
0.15699531 0.04562877 0.1371549 -0.05368743 0.005873887 0.062453073 0.080950715 -0.15126969
0.088929415 0.0049649253 -0.39137098 0.10067206 -0.15518206 0.00079804286 -0.0884957 -0.041517865
0.0061263028 0.10081757 -0.03793048 -0.10146521 0.037546538 -0.13222173 0.007656695 -0.062856846
-0.07160845 0.2142152 -0.0022151726 0.070254266 -0.0072678006 0.030968452 0.054081585 -0.17077659
-0.1421491 -0.027693989 0.009541131 0.14034894 -0.094374664 -0.11820235 0.12462549 0.07580663
-0.07289789 -0.007182169 -0.005663386 0.0074604084 -0.15112628 -0.10728333 -0.120592594 0.099132
0.17962 -0.16125366 0.13605705 0.066874735 0.021195196 0.32964185 -0.12384304 0.017400045
0.044316605 -0.36430505 -0.1837373 -0.0027503856 0.00049274915 0.32798964 -0.1615642 -0.28661588
0.00035818145 0.09348333 -0.0021875182 0.111518115 0.060034785 0.02070479 0.1117194 -0.05125388
0.022211311 -0.036033083 0.01869979 -0.17185368 0.00085344363 0.0013226926 -0.2220066 -0.1735964
-0.04518809 0.03946069 -0.08145798 -0.021826483 0.1591905 0.08244269 -0.109785646 -0.12960973
0.0686733 -0.095070146 -0.12089342 0.069371715 0.03688286 0.099647455 -0.16910055 0.13226642
0.07511352 -0.07805495 0.05673456 0.036969233 0.008817591 0.18948025 -0.00010131062 0.11523006
0.053388007 -0.15290773 0.08265607 0.12125238 0.17210722 0.06928084 -0.09532285 0.04197813
0.07814537 0.0988629 0.0067549427 -0.05215219 -0.1038665 -0.05173142 -0.117266566 0.17384768
-0.060602188 -0.0075145913 -0.13571781 0.08883872 0.060681917 0.08051102 0.17855377 0.12033414
0.007983095 -0.08904975 0.119775504 -0.06344877 0.2341873 0.1989916 0.061546385 0.20118636
0.09638325 -0.013155247 -0.2945676 -0.22282235 0.24991426 -0.100907244 0.17645349 0.07643742
0.08661198 -0.21788049 -0.039643526 -0.19285502 -0.17109464 0.021886552 -0.08001371 -0.2648519
0.014717137 0.054643657 0.15431942 -0.2084586 0.004846562 -0.07918584 0.005243848 -0.04930352
-0.035296604 -0.20811154 0.029341718 -0.20830035 -0.08954228 -0.15265918 -0.3408937 0.06478763
-0.18719652 -0.12828486 -0.2790731 -0.17982636 -0.34282228 0.0577594 0.03292167 0.053381637
-0.04789738 -0.0010612854 0.054687046 -0.1952154 -0.12938184 0.042786296 -0.043540552 -0.03615283
0.066504024 -0.17618695 -0.12142889 -0.0688923 0.17524685 -0.10609766 0.12921987 -0.27219838
-0.14921609 0.07837095 0.04419373 0.03013783 -0.05402503 -0.09754358 0.16304229 -0.18114507
0.07052821 -0.10671452 -0.15215988 0.031847484 -0.10699242 -0.19135593 0.10965396 -0.06840515
-0.00035578007 0.048750713 -0.13134962 0.14693585 -0.002661991 -0.0904496 -0.17154333 -0.17680426

actor.0.weight f4 [512, 33]
00000000: fd2d 39be aec5 fa3e b7ef 5abe 63cd 93be
00000010: a5c4 69be 10d7 1abf 29a7 8a3e d841 04be
00000020: 6a39 1abd 5dae f2bd d4e9 8e3d def4 543e
00000030: 4bba 213e 7051 5dbd e8b9 2b3f 5b7f 94be
00000040: a409 223f a57c 54bd 834c f1be bcec 58bd
00000050: 6bb7 aebe 75be 1abf 229f 983d 8213 80be
00000060: 4bb2 103d c2e1 383e aa5e 6c3d fe73 4f3f
00000070: aff5 a9bd a095 26bd c089 4dbf 505a 7d3c
00000080: 1bb7 063f 9043 293e 7f92 2e3f 832f 68be
00000090: fa46 d0be 86a2 e8bd b952 e0be 29c9 803e
000000a0: 7e74 923e 3de0 4fbf e471 5fbe 0e7e 9f3c
000000b0: 2334 4ebe cc87 03bd cebd 37be 9ad1 963e
000000c0: 0a72 66bd 322c aa3e 133b 0a3f 74b5 0b3f
000000d0: fa5e 073f d542 113e 97c1 0b3c 12cb b7bc
000000e0: cf2a 403e 1e28 62be 8c75 853e 24ab 32be
000000f0: 06ae 803f 2337 8e3e e645 2f3e 3994 67bf
00000100: 4810 abbd 6fa4 963e 6869 dfbd 54e8 de3d
00000110: 18f0 063e 392c de3e 2bbc 1e3f be46 413f
00000120: 36d0 013d 4033 83be 649c 88be 3239 b9bb
00000130: 13b7 e7bd 60c4 543f 49d8 1ebe 871d 8c3d
00000140: 374c 123e ceb5 063d 14a2 9bbf 45e0 3ebe
00000150: c6d4 013f 9dca 5bbf ede7 903c 2f17 ed3e
00000160: cea1 03bf b022 0abe 0def 7abd 31fb 99bd
00000170: a9d1 da3d f4c3 063f f4ea 44bc 39ca 06be
00000180: 7e3a 0bbf 5e50 a9bd 5079 00be 41fc e1be
00000190: a17a d33e 1668 76bd 179c 9bbe 0ffc 6f3d
000001a0: e7d4 13bf 3897 8ebe 5b5e ebbd 5b85 443e
000001b0: d47b 78bf e81a 33be c53d 4e3e 3c09 683e
000001c0: 1003 33be 0422 a73e 204a 2bbd b020 6dbe
000001d0: 64af 0d3e 34f1 753e 1600 f5bd dc0a 233e
000001e0: de00 a1bd d7f2 25bf 9c45 7f3d 3f42 60be
000001f0: 148a 07be 1d43 973d 5910 563f d629 3dbd
00000200: 247e ee3d 03e6 63bf a6fb 64bd 52b6 22bf
00000210: 8f51 88bd 7a5d c53e 6098 123d fa50 46be
00000220: 0e49 d6be b662 8cbe 9a49 183d 0816 41bd
00000230: fe12 16bf 4700 19be c808 fe3e 48ab aa3e
00000240: 64da a13e 930e 06bd 592f 463f bfff f5bd
00000250: d9ed 4dbe f4d0 0fbf 5592 1a3f 26c9 333f
00000260: 887d b53c 773f 383e 36f2 9b3d f072 713d
00000270: 6dde e83d 0869 f9bd 50e9 07be ad40 1f3f
00000280: a1c0 3e3e 39c7 9fbd f055 bfbe b8da 28be
00000290: 5e8b 44be e174 e7be 7264 753d 5993 80be
000002a0: ae1b 8c3d 1c4d fabd e0b0 c33e cf26 42bd
000002b0: 68a0 0e3f d149 cb3e 4de0 4fbd 9531 be3e
000002c0: df0c 9cbe e023 82be d89c 013d 8961 83bd
000002d0: 08d2 8f3e 8af7 f0bd 4e23 dcbe e025 4ebf
000002e0: f4c2 2b3d ac46 a1bd f841 e5be 10f6 52be
000002f0: ce3e 9e3e 089c 26bc 09f7 8d3d de57 edba
00000300: c17a f73e 402c 483d 0879 e63d 5977 e1be
00000310: d0ff 433d b358 99bf 0aee 13be c6b9 fc3d
00000320: 8dd9 0dbe 5774 95be cca2 01bf 7474 573f
00000330: ec57 023e 5a12 ac3d b450 82bd 33f7 963d
00000340: a5a5 c73d 22c1 6d3e 6621 be3e cb0d 20bd
00000350: 4aa3 f63e 5a16 143d dc99 c03e bf48 9cbc
00000360: b6aa 0c3f caaa 8b3f d045 1a3e 633e 82be
00000370: f57f a8be 6686 273e d549 943e c215 bebe
00000380: 6bd9 0abe 21ca 533f ed4e 3bbe 746b 063e
00000390: 61c1 39bf a2df 49bd b50a 98be fc4f 3ebe
000003a0: 1e69 723d 855c 9f3d 7fe9 553e b551 373e
000003b0: ba88 6c3e 8ca5 bfbe 8881 86be 1237 cf3e
000003c0: 2b85 5bbd 1dc3 f2bd a820 393d 6118 56be
000003d0: 42b0 bebe 5577 cb3e 3da4 9abe 516a 0dbf
000003e0: 1c9e f2be 9c8c 93be c0cc 893e 9f6f f3bd
000003f0: 16d8 0b3e f926 88bd d288 46bd 212f d13d
-0.1808395 0.48978943 -0.21380506 -0.28867635 -0.2282892 -0.6048441 0.27080658 -0.12915742
-0.03765241 -0.118496634 0.06978193 0.20796534 0.15793721 -0.054032743 0.67080545 -0.29003415
0.6329596 -0.051876683 -0.47128686 -0.052960142 -0.34124312 -0.60446864 0.07452227 -0.25014883
0.035326283 0.1805487 0.057707466 0.81036365 -0.082988136 -0.040670037 -0.80288315 0.015463427
0.52623147 0.1652968 0.68192285 -0.22674374 -0.4067915 -0.11359124 -0.43813112 0.25153473
0.286045 -0.81201535 -0.2182079 0.019469287 -0.20137076 -0.032111928 -0.17943498 0.29456788
-0.0562611 0.33236843 0.5399639 0.5457375 0.528793 0.1418565 0.008530042 -0.022435699
0.1876633 -0.22085616 0.26066244 -0.17448097 1.0053108 0.2777644 0.17116508 -0.90460545
-0.08352715 0.29422328 -0.109087765 0.10884157 0.13177526 0.43393114 0.6200587 0.7549857
0.031692706 -0.25625038 -0.26681817 -0.00565257 -0.113142155 0.83112144 -0.15512194 0.068415694
0.14286886 0.032888226 -1.2158837 -0.1864024 0.5071529 -0.8585604 0.017688716 0.4630675
-0.5141877 -0.13489795 -0.061263133 -0.07518614 0.10684521 0.5264275 -0.012018908 -0.1316308
-0.54386127 -0.08267282 -0.12546277 -0.44137767 0.41304496 -0.060157858 -0.30392525 0.05858999
-0.5774674 -0.27849746 -0.11492606 0.19191496 -0.97063947 -0.17490733 0.2014075 0.22659773
-0.17481637 0.3264314 -0.041818738 -0.23157 0.13836437 0.24017793 -0.11962907 0.15922111
-0.078614935 -0.6482367 0.062322244 -0.21900271 -0.13236266 0.07385848 0.83618695 -0.046182476
0.11645153 -0.89022845 -0.055904053 -0.6355945 -0.06656181 0.3854788 0.035789847 -0.19366828
-0.4185261 -0.2741906 0.037179567 -0.04714015 -0.5862273 -0.14941512 0.49616075 0.33333802
0.3161193 -0.032728743 0.77415997 -0.1201167 -0.20110263 -0.5617821 0.60379535 0.70228803
0.022154585 0.1799296 0.076145574 0.058947504 0.11370549 -0.12178236 -0.13272595 0.6220806
0.1862817 -0.078016706 -0.37370253 -0.16489685 -0.1919379 -0.4520636 0.059910245 -0.25112417
0.06841217 -0.12221739 0.38220882 -0.047400292 0.5571351 0.39704755 -0.05075102 0.37147203
-0.3047857 -0.25417995 0.03164372 -0.06415088 0.2808993 -0.11765964 -0.42995685 -0.8052654
0.04193397 -0.07874808 -0.44776893 -0.20601678 0.3090729 -0.010169037 0.06931884 -0.0018107852
0.4833584 0.048870325 0.11253554 -0.44036368 0.047851384 -1.1980194 -0.14446273 0.12340121
-0.1385252 -0.29190323 -0.50639033 0.8416207 0.12728852 0.08401938 -0.06363049 0.07371368
0.09748391 0.23218206 0.37134856 -0.039075654 0.48171455 0.03615413 0.37617385 -0.019077657
0.54947984 1.0911496 0.15065694 -0.25438222 -0.32910123 0.16359863 0.2896258 -0.37125975
-0.13559501 0.827303 -0.18291827 0.13126928 -0.725607 -0.04928554 -0.2969567 -0.18585199
0.05918228 0.077813186 0.20889853 0.17902263 0.23099032 -0.3743099 -0.262707 0.40471703
-0.053593796 -0.11853621 0.04519716 -0.20907737 -0.3724385 0.3973948 -0.3020343 -0.5524035
-0.47386253 -0.28818214 0.26914024 -0.118865244 0.13656649 -0.066480584 -0.048470326 0.10214067

actor.0.bias f4 [512]
00000000: 12bc 25bf 951b 45bf e0fe 08bf 13fd 80bf
00000010: c60f febe bd4b 17bf db1a 22bf d62c a1be
00000020: 45f8 2cbf 2c25 53bf 7b47 1cbf c111 f4be
00000030: bef4 22bf 25e6 0dbf 224b 3fbf 3a0e 23bf
00000040: 1b66 fdbe 5449 98be ee23 30bf 2d53 e1be
00000050: 1a2e 1bbf b926 32bf a7de 55bf 992d 5abf
00000060: fea9 32bf 475f 40bf c244 64bf be52 46bf
00000070: 97c7 5cbf 46d0 38bf 131d 25bf b1d7 6cbf
00000080: 7584 60bf b9e5 a7be 3562 05bf 70e9 78bf
00000090: de31 e6be 5045 7ebf 2d72 24bf 3bf3 35bf
000000a0: 639d febe 8f81 03bf a645 83bf fa94 a7be
000000b0: db4d 95be 8b64 75bf 583f 5bbf d550 2abf
000000c0: e26c b2be 64aa 15bf b208 68bf 2db9 5bbf
000000d0: 6aa7 5dbf 383b 53bf 7350 45bf 3cc3 21bf
000000e0: 6705 a4bf d46b 3cbf 5bd0 9cbe 5b76 4abf
000000f0: 4e22 0fbf 85df 74be e176 2bbf 2fec 4fbf
00000100: e603 ecbe c753 0dbf 66f4 3cbf 88e3 27bf
00000110: 21d8 04bf 939e 71bf 3207 5dbf a94e 0ebf
00000120: b2c7 6bbf 96c9 48bf b495 38bf c27c e5be
00000130: 06f1 cbbe 5827 32bf 0f74 2cbf 0a73 41bf
00000140: 512d bcbe f1e5 23bf 0e80 aebe 9460 61bf
00000150: ffa0 00bf 9821 45bf 3530 4bbf 9ba5 11bf
00000160: 8e96 18bf a292 63be 027d 31bf 80a1 e0be
00000170: 0e74 e1be c3eb 36bf 31e7 7cbf 9a1a 2abf
00000180: 59f6 fcbd 60e2 87be 8372 e6be 0a01 36bf
00000190: 2ccf 28bf 47e4 fbbe cc50 02bf 4b93 11bf
000001a0: 5f98 1bbf 2baf 2abf 3229 8fbe d580 32bf
000001b0: 1aea 13bf 53ff dfbe 5b9e 12bf 1960 55bf
000001c0: 4612 5ebf 6e4e 7abf f9a1 60bf 0d62 42bf
000001d0: 617e 52bf ac6b 32bf 7269 1cbf 7189 27bf
000001e0: 0c2b c8be 5dbd 3abf 13f2 48bf 4468 34bf
000001f0: 9f71 22bf 2508 9dbf a834 5fbf 1607 24bf
00000200: 65a2 14bf 02b9 07bf 9226 4fbf 94fb dfbe
00000210: cab4 0ebf 3f51 2fbf b147 22bf db1f 34bf
00000220: fceb 47bf d63c 43bf 04a3 22bf f00e 51bf
00000230: 69a0 05bf 87d6 18bf b33a 55bf 6fbb 53bf
00000240: 6998 03bf 780b d5be c494 36bf d119 0dbf
00000250: 3162 69bf 9285 04bf 9692 ecbe 11b1 2fbf
00000260: 8200 c6be fc29 44bf 7d6c 3cbf ba69 30bf
00000270: 66cf febe 26b4 16bf 8093 35bf 84cb f6be
00000280: e600 ccbe 12f7 8dbf b21c 53bf 0e0e e5be
00000290: 5e06 3fbf 7a94 00be 2671 3bbf da8d 16bf
000002a0: bbb6 52bf 913c 22bf 8063 cfbe 57b4 23bf
000002b0: 2a70 49bf 2d91 33bf ba5a 13bf 7759 2cbf
000002c0: b2c6 5fbf a136 edbe 4c0d 46be 6cb9 72bf
000002d0: 41d6 4dbf c38e aebe ccdb 85bf b280 b4be
000002e0: 3dde e6be b4c0 ecbe 9a79 ddbe 0fad 98be
000002f0: 7e86 14bf c853 23bf b5a0 dbbe 29e4 c7be
00000300: 81a6 bcbe ff37 45bf e417 24bf ec12 2bbf
00000310: 9612 27bf 7c24 24bf a940 15bf 7f23 33bf
00000320: 8636 1dbf e557 3cbf a206 12bf 2631 2dbf
00000330: e692 4abf bcee d2be 6be3 12bf ab9e 4abf
00000340: 8001 4abf 9d95 11bf a976 38bf 950b 11bf
00000350: e351 38bf e874 64bf 3c71 29bf 736c 5ebf
00000360: 29d9 05bf 0c8f 78bf d20d 8bbf 96d7 81bf
00000370: 791a 8bbf 4e35 8dbd 5275 12bf 44d9 25bf
00000380: f83c 4bbf 2910 38bf f047 3dbf 0eab 17bf
00000390: c581 38bf 8eea 77bf 4400 83bf 298a 41bf
000003a0: ad83 0fbf c53e 2ebf 8c6b efbe 1e6d 40be
000003b0: ea89 70bf 515f 46bf eb18 febe 8ce7 d2be
000003c0: f9e4 1ebf d86e a2be 2aa2 39bf c1b2 5cbf
000003d0: d885 28bf 89d6 2cbf 3d82 65bf 5edd 2abf
000003e0: fb42 6dbf ade3 2dbf 36df 08bf 9118 5fbf
000003f0: 1902 2ebf 26db 50be 0733 32bf 06d2 9fbe
-0.647401 -0.7699521 -0.5351391 -1.0077232 -0.4962141 -0.5909994 -0.6332223 -0.3147952
-0.6756633 -0.82478595 -0.6104657 -0.47669795 -0.63654697 -0.554293 -0.7472402 -0.63693583
-0.49491963 -0.29743445 -0.68804824 -0.4400877 -0.6061722 -0.69590336 -0.83542866 -0.85225827
-0.6979064 -0.7514538 -0.89167416 -0.77470005 -0.8624205 -0.721928 -0.6449749 -0.9251662
-0.87702113 -0.32792452 -0.5210298 -0.972312 -0.4495992 -0.9932451 -0.6423672 -0.71074265
-0.49729452 -0.51369566 -1.025563 -0.32730848 -0.29160962 -0.9585654 -0.8564353 -0.6652959
-0.34848696 -0.5846312 -0.9063827 -0.8582943 -0.8658358 -0.82512236 -0.7707588 -0.6318853
-1.2814149 -0.7360203 -0.30627713 -0.79086846 -0.5591172 -0.23913391 -0.6697827 -0.8121976
-0.46096724 -0.5520596 -0.7381042 -0.6558156 -0.51892287 -0.9438259 -0.86339104 -0.55588776
-0.92101586 -0.78432596 -0.7210343 -0.44821745 -0.39832324 -0.69591284 -0.6736459 -0.7556616
-0.36753324 -0.6402274 -0.34082073 -0.8803799 -0.5024566 -0.77004385 -0.79370433 -0.5689332
-0.5960473 -0.22223905 -0.6933137 -0.43873215 -0.44033855 -0.71453494 -0.9879027 -0.6644684
-0.123516746 -0.26539898 -0.4500924 -0.71095335 -0.6594112 -0.491976 -0.50904536 -0.56865376
-0.60779375 -0.66673535 -0.27961117 -0.6972783 -0.57779086 -0.43749484 -0.5727288 -0.8334976
-0.86746633 -0.97775924 -0.8774715 -0.75930864 -0.8222409 -0.69695544 -0.61098397 -0.65444094
-0.39095342 -0.72945195 -0.78494376 -0.70471597 -0.6345462 -1.226811 -0.8718972 -0.6407331
-0.58060294 -0.53016675 -0.8091823 -0.43746626 -0.5574461 -0.68483347 -0.6339064 -0.7036111
-0.7809446 -0.76264703 -0.6352999 -0.8166342 -0.5219789 -0.5970234 -0.8329269 -0.82707876
-0.51404434 -0.41610312 -0.7132075 -0.5511752 -0.91165453 -0.5176631 -0.46205586 -0.68629557
-0.38672262 -0.76626563 -0.7360304 -0.68911326 -0.49767607 -0.58868635 -0.7092819 -0.48202145
-0.39844435 -1.1091025 -0.8246566 -0.44737285 -0.7461909 -0.1255664 -0.73219526 -0.588102
-0.82310075 -0.63373667 -0.405056 -0.6394705 -0.78686774 -0.70143396 -0.5756031 -0.6732401
-0.8741256 -0.4633074 -0.1934101 -0.9481418 -0.8040505 -0.34093294 -1.0457702 -0.35254437
-0.4509143 -0.4624077 -0.43256837 -0.29819533 -0.5801772 -0.63799715 -0.42896047 -0.3904126
-0.36845782 -0.7703857 -0.64098954 -0.6682575 -0.65262735 -0.6411817 -0.5830179 -0.6997604
-0.6141132 -0.73571616 -0.5704137 -0.6765312 -0.791304 -0.41197765 -0.5737826 -0.7914836
-0.7890854 -0.56868917 -0.7205606 -0.566583 -0.7199995 -0.89240885 -0.66188407 -0.8688423
-0.52284485 -0.9709327 -1.0863593 -1.0143917 -1.0867454 -0.06894933 -0.57210267 -0.64784646
-0.79389906 -0.7189966 -0.7393789 -0.59245384 -0.7207301 -0.9684228 -1.0234456 -0.7560144
-0.56060296 -0.6806453 -0.4676174 -0.18791625 -0.9396044 -0.7748919 -0.49628386 -0.4119228
-0.62068135 -0.31725192 -0.7251307 -0.86210257 -0.6582923 -0.67514855 -0.8965185 -0.6674403
-0.9268033 -0.6792553 -0.5346559 -0.8714686 -0.6797195 -0.20396098 -0.6960911 -0.31214923

actor.2.weight f4 [4, 512]
00000000: ba5c 88be ae67 d1bd 2fd2 33bc 4336 203e
00000010: b103 a63e 17eb 093c 367e 023e 2d4c 6bbe
00000020: 3758 813d 3c30 913d 6742 ae3b f83c debc
00000030: 26a4 cabe 354f 323d f499 a5be da3f b5bd
00000040: 3eac 42be 746b 04be 9b3e 4e3e 0703 68be
00000050: 2b78 bf3d dd96 133f cba0 f4be 8603 84be
00000060: 1a11 8b3d 37ff 723e 6161 fdbe bcf8 63be
00000070: d684 01be 5ce8 0e3e 3cc4 cabd ef2e c13e
00000080: 63ff cebd 2ce1 793e 2e40 df3c 1c1d de3e
00000090: 8be9 49be 51d4 eebd 0678 3e3e 5642 c1be
000000a0: 7886 e6bd 427b 903e a92f 383e 2843 0c3e
000000b0: eceb b43d f635 d6bd bf23 2b3e 11be b3bb
000000c0: baa9 85be 0e74 b83e f0f7 303e eacf dbbe
000000d0: 2da1 693e 6bb5 28be b9f5 293d c085 693e
000000e0: c620 903c 27b3 b5bd d2e2 84bd 415d 163e
000000f0: c3d2 a1bd 9e76 3dbd 8ccb 103e ae67 73bd
00000100: ee45 9bbe 594a 3cbd 93ee 63be 0bb9 cbbe
00000110: fd6d 0a3d cffa aa3c 3fad 443e e6f0 943e
00000120: 9b0e a5bd 2497 773d f56a 463e fac9 a6bd
00000130: a676 c53c 8f71 11be 1423 81bd 7cb6 313e
00000140: 29ad e13d 3cdb d13d 2833 8abe 8baa 13be
00000150: 1475 1fbe a2b9 4f3e d91b dd3d 18f7 babd
00000160: 4d3c 083d 398f 1a3d fb4d 1c3e 9096 33be
00000170: f9cd c3bd 8cd7 82be bb8f f33d 0027 c9bd
00000180: 67b6 81bd 027f 0cbe c45b ebbd 59df 4cbe
00000190: af9b 46be 698f 203d bf70 683e 3b49 babe
000001a0: 01c2 71be e7c3 42bd 626a bd3d dce8 9fbd
000001b0: 06f1 3c3d c925 703e 5180 91bd 9303 c3be
000001c0: 3fe3 d7bd 2a3f 623e 64c0 063e ee06 00be
000001d0: 3490 1bbe 80c0 703e 80cb ec3d 92ca 423d
000001e0: 0858 263a 2015 a4bd fe15 b03e a6ed 8a3e
000001f0: 4e4a 46be 350e a73e abc2 dd3d eae6 8abd
00000200: 0289 aabe 0840 9cbb 3945 a3bd 0cd7 813e
00000210: 4ae0 cdbc be24 97be 76e6 0f3c 82c8 d53e
00000220: 527c 68bd 4fc1 7a3d 63a6 b23d 4db5 893d
00000230: 9c66 6fbc 4061 bebd a636 63bc 6720 7c3e
00000240: 8225 8c3d 42f2 f13c bbef aabd c333 443e
00000250: 65e6 c4bd 9f20 ddbd 883c 9ebd b75f 9c3d
00000260: a19b ecbd 614f 2a3e c45c 0ebe 01a4 d63e
00000270: a662 64be 3ff6 a5bc 4ef0 e13e 0293 683c
00000280: 4518 4bbe 68ea 0ebd 9903 c83e 1c05 04be
00000290: 8392 f83e 5b65 a8bd a3b5 b93e c393 a4bd
000002a0: ad27 7a3e 3c16 973d cd37 03be 2605 cfbd
000002b0: 82f8 173d 6aad 8d3d 50c0 f5bd 724a 1bbe
000002c0: 5154 a5bc 55b3 a0bd ae94 683d 4a5c 1f3e
000002d0: 2e44 183e 43ea 5ebe a266 0cbf 95c2 5abb
000002e0: c8bf 21bd 7c37 24be f20c 083d 4c09 d33d
000002f0: 7e02 123e 1d9f b53c 8613 8c3d 9fbd 85bd
00000300: 0b12 113e 1d69 33bd 859d 8cbe f3f3 58be
00000310: 5f7e 6c3d 2850 d0ba 17a1 36bc 4a9a 1fbe
00000320: bac4 cf3a acb8 bf3b 0b61 32be 4480 6ebc
00000330: db27 0a3e a1c0 383d a5c4 4c3e 4721 54be
00000340: 62ea 24be 05af 1ebe 1ae0 4dbe c522 c1bd
00000350: 38dc 5c3e eb4a ddbe 223e bf3d 5c2f 31bd
00000360: 29c1 e53d 88be debe 4c8d 953d 52bb 793e
00000370: 7d33 bb3a 1f19 2c3b 8cc8 1e3d 89a3 82be
00000380: 1e35 1ebe 4bd8 b73d 444e a33d 848e 24be
00000390: 024a fb3e 497d 18be 1e11 0ebd 8c72 11bd
000003a0: e0a5 c8bd a7f8 903d c568 20be 422c eb3d
000003b0: eba3 abbe a35d 23be 36d4 27be beaf e1be
000003c0: a042 e33d 300b a7bb ca73 48be 011a debe
000003d0: 1092 cfbd ff94 6f3e c116 26be 7cbe bbbc
000003e0: 4f33 4bbd 2a91 183e bb8f 2abe 4efc 5e3e
000003f0: 6fa3 eb3c 60aa a23d 1865 a93c bc2f 23be
-0.26633245 -0.102248535 -0.010975405 0.15645699 0.3242469 0.008417866 0.12743458 -0.22978278
0.06315654 0.07089278 0.0053179744 -0.027128682 -0.3957836 0.04353257 -0.3234402 -0.08850069
-0.19011018 -0.12931615 0.2014107 -0.22657405 0.09349092 0.57652074 -0.47778925 -0.25783938
0.06790371 0.23730169 -0.49488357 -0.22262853 -0.12648329 0.13955826 -0.0990071 0.3773112
-0.10107305 0.24402303 0.027252283 0.43381584 -0.19717996 -0.1166159 0.18600473 -0.37745923
-0.11256117 0.28219038 0.17986931 0.13697493 0.08834061 -0.10459511 0.16712855 -0.005485304
-0.26106054 0.36026043 0.1728208 -0.42932063 0.2281539 -0.16475455 0.041494105 0.22804928
0.017593753 -0.08872061 -0.06488575 0.14684011 -0.07901528 -0.0462557 0.14140147 -0.05942505
-0.3032679 -0.04596934 -0.22258978 -0.39789614 0.0337963 0.020871548 0.19206713 0.2909004
-0.080594264 0.060446873 0.19376738 -0.08143993 0.024104428 -0.14203475 -0.06305519 0.17354769
0.11019356 0.10246894 -0.26992154 -0.14420526 -0.15572006 0.20285657 0.10796327 -0.09129161
0.033260632 0.037734244 0.15264122 -0.17537904 -0.095607705 -0.25555074 0.11892649 -0.09821892
-0.063336186 -0.13720325 -0.11492112 -0.20007075 -0.19395326 0.039199267 0.22699259 -0.36383995
-0.23609163 -0.04755011 0.092488065 -0.07808086 0.046128295 0.23451914 -0.071045525 -0.38088664
-0.10541391 0.22094408 0.13159329 -0.12502643 -0.15191728 0.23510933 0.11562252 0.047556467
0.0006345515 -0.08011842 0.3439178 0.27134436 -0.19364282 0.32628027 0.108281456 -0.067823246
-0.33307654 -0.0047683753 -0.079721875 0.2535938 -0.025131363 -0.2952022 0.0087829735 0.41754538
-0.056759186 0.06121951 0.08723142 0.067240335 -0.014611866 -0.09295893 -0.01386801 0.24621736
0.068430915 0.029534463 -0.08346506 0.1916037 -0.09614257 -0.107972376 -0.07726389 0.07635444
-0.11553121 0.16631843 -0.13902575 0.41922 -0.22303256 -0.02025902 0.4412865 0.014195206
-0.19833477 -0.034891516 0.39065245 -0.12892574 0.4854928 -0.08222457 0.3627139 -0.08035996
0.24429198 0.07377288 -0.12814255 -0.10108404 0.03710223 0.06917842 -0.11999571 -0.15165117
-0.020181807 -0.07846705 0.056782417 0.15562549 0.14869758 -0.21769051 -0.54844105 -0.003338014
-0.039489537 -0.1603679 0.03321547 0.103045076 0.14258763 0.022170598 0.06839661 -0.06530308
0.14167039 -0.043801416 -0.27463928 -0.21186809 0.057737704 -0.0015893029 -0.011146805 -0.155862
0.0015851476 0.005850872 -0.17419831 -0.014556948 0.13491766 0.04510558 0.19996889 -0.2071582
-0.16105035 -0.15496452 -0.20105019 -0.0943046 0.21568382 -0.4322122 0.09338023 -0.043258056
0.11218483 -0.4350474 0.07302341 0.24387863 0.0014282312 0.002626009 0.038765475 -0.25515392
-0.1544995 0.089768015 0.07973912 -0.1606999 0.490799 -0.14891542 -0.034684293 -0.03550963
-0.09797263 0.07078677 -0.15664966 0.11483051 -0.33523497 -0.15953688 -0.16389546 -0.44079393
0.11096692 -0.005097769 -0.1957542 -0.43379214 -0.10135281 0.23396681 -0.16219617 -0.022917978
-0.04960948 0.14899126 -0.16656391 0.21775934 0.028764455 0.07942653 0.020678088 -0.15936178

actor.2.bias f4 [4]
00000000: 9226 79bc 094a 723d db91 a9bc 6c4a 473b
-0.01520695 0.059152637 -0.020699432 0.003040935
