models/ppo_trained.pth (torch_old, 151021 bytes, 8 tensors)

log_std f4 [1, 4]
000000 31 e4 01 bf 86 0b e6 be 4f a9 1e bf d5 fa fe be
       -0.5073882 -0.44930667 -0.61977094 -0.49800745

critic.0.weight f4 [512, 33]
000000 cd ab aa be fd 38 02 3e 34 e5 c2 3e 84 66 af bd
       -0.333342 0.12717052 0.38065493 -0.08564475
000010 a8 e1 97 3e e5 12 1d bf bf fb fa 3e 23 f6 c8 3d
       0.2966435 -0.61356956 0.49020192 0.09812572
000020 3c 6f 8e be cc 2c 71 be 13 5d 11 be cf d5 80 3d
       -0.2781924 -0.23552245 -0.14195661 0.06290781
000030 7e 4f 25 3d 8b b2 7e be 6f 75 44 3e c1 70 95 be
       0.040359013 -0.24872796 0.19185422 -0.29187587
000040 7b 51 35 be 28 9b 19 3d 43 b2 5a bc 17 4f 0d 3f
       -0.17706864 0.037501484 -0.013348165 0.55198807
000050 82 e7 db bd d5 6f 2f 3d 41 b2 e6 bd 95 cd 3b bd
       -0.10737516 0.04283126 -0.11264468 -0.045850355
000060 5c 7f 14 bc d3 00 24 3c 21 ad af 3e 6a 6a b2 3e
       -0.009063568 0.010009962 0.34311774 0.34846812
000070 3b 2f cc 3d eb 1a b1 bd e4 2e ff be 70 e3 cd 3c
       0.09969946 -0.08647712 -0.49840462 0.025132865
000080 ef c2 c6 3f 24 a2 46 be 4d 53 e2 3e fb c2 ce be
       1.5528239 -0.19397789 0.44204178 -0.40383133
000090 00 a4 84 bf c2 6c 88 bf a8 30 cd 3b ee 2c 98 be
       -1.0362549 -1.065819 0.006261904 -0.2972178
0000a0 ed 1a 85 3d 5d 3d 9d bd c0 0c de 3d 14 63 38 3e
       0.06499276 -0.0767772 0.108422756 0.18006545
0000b0 56 ce a6 3c f9 93 c4 3d ab f4 4a be 97 7c b4 3e
       0.02036206 0.09598536 -0.19819896 0.35251305
0000c0 51 82 a9 bd 67 87 bd 3e 00 a2 36 bf 98 79 8c 3e
       -0.08276809 0.37017366 -0.7134094 0.2743652
0000d0 3d 03 00 bd af 50 41 bd 15 25 4b 3e 8c da 4d 3e
       -0.03125309 -0.047196086 0.19838364 0.201029
0000e0 9e c7 d1 3c e8 a7 75 3d 98 7f ca 3d 7a c9 57 3e
       0.02560788 0.05997458 0.09887618 0.21072951
0000f0 c9 28 18 3f 37 7b b4 bc 54 a2 85 bd d3 e8 52 bf
       0.59437233 -0.02203141 -0.06525102 -0.8238651
000100 f8 b5 be 3d 64 96 10 3d 12 55 b0 3c a9 04 cb 3e
       0.093120515 0.035299674 0.02152494 0.39651993
000110 84 45 de be ca 11 86 bf 13 e2 15 be 9b 24 05 3f
       -0.4341241 -1.0474179 -0.14637022 0.5200898
000120 2b c6 75 be 1f 4a 94 bc df 39 9d b9 c3 3d 3f 3e
       -0.24001376 -0.01810175 -0.0002998849 0.18675904
000130 98 ba e8 ba 5f 4c 4b bd 9b 54 6c bd 01 7a 31 3d
       -0.0017755805 -0.04963338 -0.057697874 0.043329243
000140 bb a8 90 3e 55 af 44 be 86 e9 da 3d d5 cc 63 be
       0.2825373 -0.19207509 0.10689072 -0.22246106
000150 c6 67 3b 3e 32 4a 61 3f 99 24 02 3e 9d 8c 58 3e
       0.18301305 0.8800384 0.12709273 0.2114739
000160 df 93 81 bd ac 5f 5b bb 27 06 77 3d b9 19 38 be
       -0.06327032 -0.0033473773 0.0603086 -0.17978562
000170 95 93 51 be 24 e4 42 3f 66 5f 09 3e 00 05 61 bb
       -0.20466454 0.76129365 0.13415298 -0.0034335256
000180 1c 30 29 bf ff b2 b1 bd 9e 84 6a 3f ab 8e f1 bd
       -0.66089034 -0.08676719 0.9160861 -0.1179479
000190 a1 73 85 3d 56 dc 03 be 84 37 04 bf 04 7a ab 3d
       0.06516195 -0.1287702 -0.5164721 0.08372882
0001a0 d2 b5 f2 3e 15 bd a6 bc bb 11 48 3e 4f e3 84 3e
       0.47404343 -0.020353833 0.19538014 0.25954673
0001b0 23 6a 08 be 63 8a 54 b7 f6 6f 34 3d 89 a3 0d 3d
       -0.13321738 -1.2668405e-05 0.044052087 0.034579787
0001c0 cd da 50 3e ea 49 28 3d e3 b8 15 be 8f 59 3e bf
       0.20395966 0.041086115 -0.1462131 -0.74355406
0001d0 61 57 b1 bf 0d f8 06 3f 33 52 8a 3f 57 37 b5 bc
       -1.3854791 0.52722245 1.0806335 -0.022121115
0001e0 a4 f8 c7 bb f7 20 34 be 88 1e c6 bd 59 20 0f bd
       -0.0061026383 -0.175907 -0.09673792 -0.03494296
0001f0 dd 94 0a bd 7e ee 3b be d2 58 6d 3f f3 da 2c 3d
       -0.033833373 -0.18352696 0.92713654 0.042200994
000200 ca 78 93 bd a6 4a 53 bf a2 aa 69 bd 07 b7 74 3f
       -0.07200773 -0.8253578 -0.057047494 0.9559178
000210 88 e9 03 3e 67 f2 4f be 9b c6 c1 be 99 17 d4 3e
       0.12882054 -0.20307313 -0.37846836 0.41424254
000220 53 77 bc 3e 10 d5 45 bd a3 8d be 3d 61 54 37 3e
       0.36809787 -0.048298895 0.09304359 0.17903282
000230 6b 90 d1 bd 64 a5 b1 3c 61 d5 d9 bc 04 1d cc bb
       -0.10232624 0.02168531 -0.026591005 -0.006229045
000240 0a 0a b8 bd 5f aa 97 be a9 dc 27 bd d4 90 91 3e
       -0.0898629 -0.2962217 -0.040981922 0.28430808
000250 02 b3 95 3e 69 a7 92 be 6a c1 df be 04 14 4d bf
       0.29238135 -0.2864335 -0.4370225 -0.80108666
000260 51 32 4f 3b c7 90 d3 3d 58 0b bd bb 1f 62 f9 bd
       0.0031615684 0.103303485 -0.0057691745 -0.12176918
000270 f9 0c 20 3d 71 d5 2c bd 5e 84 8b 3e e8 a1 89 3e
       0.03907487 -0.04219574 0.27249426 0.26881337
000280 2d b1 36 3e 44 96 1f bd da 75 d5 be 90 34 ff bd
       0.17841025 -0.038961664 -0.41691476 -0.124611974
000290 60 36 92 3f 80 6a 82 be 82 1d 6e bb 95 a4 e6 bd
       1.1422844 -0.25471878 -0.0036333506 -0.1126186
0002a0 0a cb 8a 3e 07 74 93 3e 22 21 26 bd 93 ea 15 3f
       0.27108032 0.2879946 -0.04055894 0.58561057
0002b0 b1 1f f7 3b 64 3f 01 3d 60 1c 68 3e cb f2 fe 3d
       0.0075416197 0.031554595 0.22667074 0.12448653
0002c0 01 0d 38 bd c7 ef c5 3d 0c 48 c6 3d ea 54 15 3f
       -0.044934276 0.096648745 0.096817106 0.58332694
0002d0 16 09 89 bd 64 7b 67 bf ee 31 99 be 91 95 2b 3e
       -0.06691186 -0.90422654 -0.29920906 0.16756274
0002e0 2f b8 b9 3e 66 77 24 3c 66 97 54 be 76 2a 30 be
       0.36273333 0.010038232 -0.20760879 -0.17203698
0002f0 c8 f1 46 bd ae 5e 43 3d c3 31 30 3e 12 c1 30 3e
       -0.048570424 0.047697715 0.17206483 0.1726115
000300 c0 a4 46 3f cd 7a 05 3e 30 b4 8b 3d 8a c4 5a bf
       0.7759514 0.13035126 0.068214774 -0.85456145
000310 04 b1 3a 3d a4 22 3a be cd c5 54 bd 61 0c 0e 3e
       0.04557897 -0.18177277 -0.05194645 0.1387191
000320 c7 1f 06 bc 3c 8b 6b 3d 5a ea f8 3a 07 2c fb 3e
       -0.008186287 0.05750583 0.0018990741 0.49057028
000330 5b f9 ac be cf 3e fe 3d f8 70 1e 3e 01 7c a1 be
       -0.33783993 0.124143235 0.15472782 -0.3153992
000340 fc e0 f4 3c 9e 19 e0 3c d1 3b 4f bc 7d f9 2e be
       0.029892437 0.027355965 -0.012648539 -0.1708736
000350 8d b2 43 3e 6c 69 05 bc 43 f2 1b 3f 1b a1 3c be
       0.1911108 -0.00814281 0.6091654 -0.18420832
000360 7e c2 91 bb 37 92 ab bd f4 01 d4 bc 3e 3c 82 bd
       -0.004448234 -0.08377498 -0.025879838 -0.063591465
000370 4c 5c c5 bd 1b 17 f2 bd 2e fa c8 3b b0 46 c2 bd
       -0.09636745 -0.11820813 0.0061333394 -0.09486139
000380 44 06 40 3d a7 fc 61 3f dd 6a 42 3c 94 b9 8c 3d
       0.046880975 0.8827614 0.0118662985 0.06871334
000390 c3 cd 71 bf 09 6c a9 bd 9f a0 96 3f a1 50 ff bd
       -0.9445459 -0.08272559 1.1767768 -0.124665506
0003a0 ae 96 84 3d 5d 90 2c be 18 b0 82 be d3 82 f5 be
       0.06474052 -0.16851945 -0.25524974 -0.47951373
0003b0 d3 09 e3 3d 74 05 a6 3d 0d 4f d5 bd 44 cd 48 be
       0.11085858 0.08106509 -0.10415468 -0.19609553
0003c0 4b 3e 0a bb 2e 2d c3 3b 4a bb 80 3d 17 7c d8 3c
       -0.0021094258 0.0059563136 0.062857226 0.026426358
0003d0 16 45 62 be 69 6d c5 3e 42 5c 99 bd 14 8b 94 be
       -0.22096667 0.38560036 -0.074883 -0.29012358
0003e0 4d 3e 5a 3e 63 ab 50 bd 05 bc 34 bf d7 93 18 3b
       0.21312828 -0.050944697 -0.70599395 0.0023281479
0003f0 1f 24 3c be b0 e3 b7 bd 67 5a 25 bd 59 f4 e0 bc
       -0.18373154 -0.08978975 -0.040369418 -0.027460264

critic.0.bias f4 [512]
000000 1a de ef be 3b 58 1c bf 52 48 29 bf 24 a8 29 bf
       -0.46849138 -0.6107213 -0.6612598 -0.6627219
000010 1e 4c aa be 6e a0 46 bf 5b 7d 76 bf 20 6c 89 bf
       -0.33261198 -0.77588546 -0.9628503 -1.0736122
000020 d5 48 3c bf 7d 3c aa be 7d ee 5f bf 93 f0 51 bf
       -0.7354863 -0.33249274 -0.8747328 -0.8200771
000030 d8 bd 1a bf a3 24 66 bf 94 04 2d bf 26 ad d4 be
       -0.6044593 -0.89899653 -0.6758511 -0.41538352
000040 36 d2 73 bf 05 b4 6c bf d9 e3 6f bf d4 4a 22 bf
       -0.9524263 -0.9246219 -0.9370704 -0.6339543
000050 34 77 a8 be cf ca cf be 39 14 f0 be d2 1b eb bd
       -0.32903445 -0.40584418 -0.4689043 -0.11479916
000060 5b 2c 20 bf 14 2e 72 bf b1 f5 e1 be 1d 4c 94 bf
       -0.6256768 -0.9460156 -0.4413276 -1.1585728
000070 24 be 6c bf 0e d7 3c bf 33 d9 4f bf 16 17 80 bf
       -0.9247763 -0.7376565 -0.81190795 -1.0007045
000080 e8 04 81 bf 39 97 59 bf 23 2d 9c be 37 1a 58 bf
       -1.0079622 -0.8499637 -0.30503187 -0.84415
000090 59 59 23 bf b1 ed 60 bf d0 f5 48 bf 2d bb 73 be
       -0.6380821 -0.8786269 -0.7850008 -0.2380187
0000a0 3f 58 66 bf 40 64 36 bf 03 8e 53 bf a7 a5 d3 be
       -0.899784 -0.7124672 -0.8263857 -0.4133732
0000b0 42 10 31 bf 92 08 0b bf da c4 7c bf 8f 5d 53 bf
       -0.6916543 -0.5430995 -0.9873787 -0.82564634
0000c0 b0 8e 6b bf ea 0d 03 bf 02 f7 68 be 7d 68 59 bf
       -0.920146 -0.51193106 -0.22750476 -0.8492506
0000d0 a0 94 75 bf fb e0 3e bf 34 77 18 bf d1 f0 52 bf
       -0.9592991 -0.7456204 -0.5955689 -0.82398707
0000e0 e4 d4 21 bf 98 9a 7d bf 3d 69 67 bf 63 ad 2f bf
       -0.6321547 -0.99064016 -0.90394956 -0.6862394
0000f0 6f c0 eb be f3 4b 78 bf e9 af 55 bf 16 12 54 bf
       -0.46045253 -0.9699089 -0.8347154 -0.82840097
000100 c4 87 39 bf 3b f3 4f be c6 85 42 bf 7c 87 92 be
       -0.72472787 -0.20307629 -0.7598537 -0.2861899
000110 da 21 5a bf 34 22 70 bf 43 80 6b bf 27 ea 3d bf
       -0.85207903 -0.9380219 -0.91992587 -0.74185413
000120 1f b2 2e bf db b9 21 bf 44 1e 59 bf 4d 43 3e bf
       -0.6824054 -0.6317422 -0.84811807 -0.7432144
000130 2f 7f 0c bf 89 c0 d0 be 34 13 0e bf aa b7 1b bf
       -0.54881567 -0.40771893 -0.5549805 -0.60827124
000140 07 ea 55 bf fa 2a cb be 45 ca 00 bf 02 21 b6 be
       -0.8356022 -0.39681226 -0.5030864 -0.35572058
000150 0f 92 7a be 92 af 8d bf 43 96 2a bf d7 dd c0 3c
       -0.2446978 -1.1069205 -0.6663553 0.023543281
000160 2e 67 57 bf 4a 66 41 bf 35 33 6c bf 2f c4 f9 be
       -0.84141815 -0.75546706 -0.92265636 -0.4878249
000170 14 68 43 bf cd e8 6c bf 50 23 38 bf c5 bc 81 be
       -0.76330686 -0.92542726 -0.7192888 -0.25339332
000180 40 0d 7a bf 5a 37 1a bf ab 48 72 bf f9 fe 7d bf
       -0.9767647 -0.6024071 -0.9464213 -0.9921718
000190 9f 85 8f bf a1 d8 41 bf fd 61 22 bf ed 4b 74 bf
       -1.1212653 -0.75721174 -0.6343077 -0.95428354
0001a0 68 5c 26 3d 35 52 b1 be d6 84 31 bf 69 94 3e bf
       0.04061547 -0.3463303 -0.69343317 -0.74445206
0001b0 a2 8e 5d bf 6e cb 61 bf 71 2f 5d bf 6f 5e bc be
       -0.86545765 -0.88201034 -0.86400515 -0.36790797
0001c0 0f 01 3a bf f2 9d 7b be a6 57 ae be 31 06 67 bf
       -0.72657865 -0.2457197 -0.34051245 -0.9024382
0001d0 02 45 35 bf f6 79 8f bc 58 bf 33 bf 6a e3 60 bf
       -0.7080842 -0.01751421 -0.7021384 -0.87847006
0001e0 ac ae 1d bf 7f fc 63 bf dd be 4d bf 73 95 df be
       -0.61594653 -0.89057153 -0.8036936 -0.43668708
0001f0 e1 8a 5b bf 5b 39 46 bf 36 e6 52 bf cc 2a 24 bf
       -0.8575879 -0.7743127 -0.82382524 -0.641278
000200 cf 8f 15 be 51 81 35 bf 69 ce 67 bf 61 d8 5e bf
       -0.1460564 -0.70900446 -0.9054933 -0.8704892
000210 f9 af 73 bf 2f 48 f4 be 6c 0f 58 bf cb 54 10 bf
       -0.9519039 -0.47711322 -0.8439853 -0.56379384
000220 6c 52 44 3e e9 8e 9f bf 8d a7 48 bf a7 de 65 bf
       0.19172066 -1.2465488 -0.7838066 -0.89792866
000230 b3 3e 3d bf a2 12 15 bf 81 e5 e1 bc cc 7c 7a bf
       -0.73923796 -0.58231556 -0.027575256 -0.97846675
000240 d0 35 0b bf 59 83 8a bf 49 ff f3 be 83 f3 1c bf
       -0.54378986 -1.0821334 -0.47655705 -0.6130907
000250 cb bc 12 bf ba 35 47 bf 33 7f 1b bf 64 11 db be
       -0.57319325 -0.77816355 -0.60740966 -0.42786705
000260 86 4d 82 bf f7 ce 69 bf 1e 54 17 bf c1 ea 27 bf
       -1.0179908 -0.9133143 -0.5911273 -0.6559258
000270 86 04 06 be bd 26 a9 be 39 b9 62 be cc 4b 74 bf
       -0.13087663 -0.33037367 -0.2214097 -0.95428157
000280 bb f8 69 bf 31 11 05 be 00 91 93 be 72 4e 75 be
       -0.9139516 -0.12994839 -0.28821564 -0.23955706
000290 b6 4e 54 bf c7 b4 6b bf f9 47 6a bf d4 2c aa be
       -0.82932603 -0.9207272 -0.9151607 -0.33237326
0002a0 66 4e 2b bf 79 8e 33 bf 04 48 65 bf f7 d2 dd be
       -0.669165 -0.7013927 -0.8956301 -0.43325016
0002b0 e8 1b 67 bf 67 04 84 bf cd 77 01 bf d9 d7 18 bf
       -0.90276957 -1.0313843 -0.50573426 -0.5970436
0002c0 08 03 12 bf 04 92 15 be f6 69 d8 be 77 97 05 bf
       -0.57035875 -0.14606482 -0.42268342 -0.5218424
0002d0 c2 91 5d bf f5 66 59 be 7f 27 79 bf 08 e3 5f bf
       -0.86550534 -0.21230681 -0.9732589 -0.874558
0002e0 c9 30 44 bf 0e 9a f2 bd a1 54 16 bf cb 57 11 bf
       -0.7663694 -0.1184579 -0.58722883 -0.56774586
0002f0 77 ac 20 bf de 94 2e bf 56 5b 65 bf c7 37 57 be
       -0.6276316 -0.68195903 -0.8959249 -0.21017371
000300 76 e0 1c bf 88 50 72 bf 10 ce 9a be d3 b2 02 bf
       -0.6128 -0.9465413 -0.30235338 -0.51054114
000310 a1 9f 86 bf 03 03 4a bf ec 07 42 bf c0 20 1e bf
       -1.0517465 -0.78910846 -0.7579334 -0.6176872
000320 e5 42 42 bf a1 48 1e bf 2f d0 c8 bd be 82 26 bf
       -0.7588332 -0.6182957 -0.09805333 -0.65043247
000330 bc da 80 be 21 4c 78 bf fa 04 37 bf db d3 22 bf
       -0.2516688 -0.96991163 -0.7149197 -0.63604516
000340 d0 4e 85 bf 23 7c 35 bf 17 2c 87 bf 45 2a ff be
       -1.0414677 -0.7089254 -1.056033 -0.49836937
000350 10 8d 23 bf 7a 76 56 bf 2b a2 82 bf 27 3d 07 3c
       -0.6388712 -0.8377453 -1.020574 0.008254326
000360 d0 5e 58 bf 03 16 3a bf 94 3b 1f bf d8 31 e8 be
       -0.8451967 -0.7268984 -0.62200284 -0.45350528
000370 86 3a 5d bf a4 76 e9 be 52 96 76 bf d4 6d f6 be
       -0.86417425 -0.45598328 -0.9632312 -0.48130667
000380 b9 ec 81 be 9a 90 8d bf 8b 77 a0 be 56 a6 44 bf
       -0.25375918 -1.1059754 -0.31341204 -0.7681631
000390 5d 14 46 bf 9e 05 ff be 79 3f 31 bf 7a 19 19 bf
       -0.7737482 -0.49808973 -0.69237477 -0.598045
0003a0 65 b3 9d be 62 91 91 be 49 ec 0a bf 73 af 04 bf
       -0.3080093 -0.2843123 -0.5426679 -0.51830214
0003b0 ea 14 b1 3d 5c 5e 70 bf 32 7c 5e bf 4d 31 8b be
       0.08646567 -0.9389398 -0.86908257 -0.2718605
0003c0 ad 20 78 bf 62 3d 62 bf ca 6c 52 bf ca a3 6d bf
       -0.9692486 -0.8837491 -0.8219725 -0.9282805
0003d0 de f6 44 bf dd ab 16 bf 65 7c 97 bf 8d 55 65 bf
       -0.7693919 -0.5885599 -1.1834837 -0.89583665
0003e0 c1 b1 db be b0 89 2f bf 75 cc 44 bf 2f a6 e6 be
       -0.42909053 -0.6856947 -0.76874477 -0.45048663
0003f0 fb 4c 31 bf 33 8f 3c bf 1b fb 32 bf 79 cc fd be
       -0.6925809 -0.73656005 -0.69914407 -0.49570063

critic.2.weight f4 [1, 512]
000000 d8 54 0b 3e 7f 86 51 be 82 ba 72 3e df f5 8c 3e
       0.13606584 -0.20461462 0.2370396 0.27531335
000010 10 47 36 3d 40 bc ba 3d 46 b9 f4 bd ec 4e 84 bd
       0.044501364 0.09117937 -0.119494006 -0.06460366
000020 a3 3d af 3d 26 a6 1f be 0e 1c 0e bf ce 89 6e be
       0.08556678 -0.15590724 -0.5551156 -0.23294756
000030 94 ae e1 bd 01 e2 43 be 33 33 bd bd 52 af 32 be
       -0.11019626 -0.19129182 -0.09238281 -0.17449692
000040 ec 8c d1 3d 59 37 4f 3e d1 1a 30 be 2d 1d 3a 3d
       0.10231957 0.20235957 -0.1719773 0.04543798
000050 39 c6 7c 3d 29 c7 98 bd 74 cf 77 3d 52 da a1 bd
       0.061712477 -0.07459862 0.060500577 -0.079029694
000060 82 0b 24 bd 37 c6 b4 bd df db 76 3d da 78 08 be
       -0.040050037 -0.08826869 0.06026828 -0.13327351
000070 00 75 12 be 01 ef a0 bd 80 bf b4 3d 18 8e 80 3e
       -0.14302444 -0.078580864 0.08825588 0.2510841
000080 d8 9f 69 be b2 28 a7 3e ff 30 10 3e 59 2f 13 be
       -0.22814882 0.32648236 0.1408119 -0.1437353
000090 96 1a df 3d 42 67 5f 3e 1c 2b 96 bd 4f 4a a7 3d
       0.10893743 0.21816733 -0.07332441 0.0816847
0000a0 56 a7 05 be 46 06 b5 be 1b 29 4a 3e 8c d5 1f 3d
       -0.13052115 -0.3535635 0.19742243 0.039022014
0000b0 8a da 18 be 77 5a ba bc 31 f1 93 be 5c 2a 0d be
       -0.14927116 -0.022748215 -0.28894952 -0.1378569
0000c0 d6 f7 cd bd cc b4 f0 bd cb fb a8 bd a4 96 2b be
       -0.100570366 -0.11753234 -0.08251151 -0.16756684
0000d0 6f 49 5e be 80 66 b7 bd d2 22 8e be c0 1e 7c 3d
       -0.217077 -0.08955097 -0.2776094 0.061552763
0000e0 b3 3c 03 3e 2b a6 01 be 78 55 76 3e 60 13 12 be
       0.12816124 -0.12661044 0.24056041 -0.14265203
0000f0 20 5c 5c bd c2 62 b4 be ae 01 f3 3d 81 93 f8 bd
       -0.053798795 -0.35231596 0.11865555 -0.12137509
000100 95 f0 f1 bd a3 8b 8a bd ac 7e fc 3d dc 14 c2 3d
       -0.118134655 -0.06764915 0.12328848 0.09476635
000110 fa f6 37 3e 74 ce b4 be 4f 73 1e 3e 60 ed 2c bd
       0.17965308 -0.3531376 0.15473674 -0.042218566
000120 31 7f 21 3e 75 3b d5 bd d0 0a 93 bd 1c 68 17 be
       0.15771176 -0.10411731 -0.07179797 -0.14785808
000130 43 32 e3 bd c9 3b 74 bd 98 76 a5 3d 75 f2 c4 be
       -0.11093571 -0.059627328 0.080792606 -0.3846623
000140 84 08 44 be 23 81 70 3d 39 da 28 3d a9 07 92 3d
       -0.19143873 0.058716904 0.04122374 0.07130367
000150 f2 7e 87 3d 34 b4 30 3e 50 bc 01 be 73 40 3c be
       0.0661601 0.17256242 -0.12669492 -0.1838396
000160 96 db e0 3d de 59 80 bd 96 2f 21 bc 65 0d fa bd
       0.10979383 -0.06267141 -0.0098380055 -0.12209586
000170 88 c4 b1 3d c8 15 1a be 68 8a 67 be b6 ac 8c 3d
       0.086800635 -0.15047371 -0.22611392 0.068688795
000180 f4 22 e5 be fd ed cc bd c2 56 4a bd 87 56 9b be
       -0.4475323 -0.1000633 -0.049399145 -0.30339453
000190 5c 52 40 be e3 9d 88 be 8b 5c f9 3d f0 80 7a 3e
       -0.18781418 -0.26682958 0.12175854 0.24463248
0001a0 c4 99 9a 3d f3 d4 89 3d 32 03 16 3e 33 b8 4d 3d
       0.0754886 0.0673007 0.14649656 0.050224494
0001b0 15 52 e7 be 75 05 8d be da ac 84 3e 85 09 a3 3d
       -0.4517981 -0.27543226 0.25913125 0.079608
0001c0 46 a1 d0 bd 2b 34 cc 3c 6a 15 23 be c6 ed 7a 3e
       -0.101870105 0.02492722 -0.15926138 0.24504766
0001d0 06 6f c3 bd 3f d2 59 3d 24 d1 23 3e 8a cf 9f be
       -0.095426604 0.053179022 0.1599775 -0.31213027
0001e0 c4 81 17 be 87 2c 9a be c8 cc b6 3e 35 47 e9 3d
       -0.14795595 -0.30112097 0.3570311 0.11390535
0001f0 35 65 6e bd 0e 42 64 bd 11 ad cf bd e7 70 44 be
       -0.058201987 -0.055727057 -0.10140432 -0.19183694
000200 f2 26 44 be fb 6a 20 bb da 93 18 be ae cd 69 3e
       -0.19155481 -0.0024477828 -0.14900151 0.22832367
000210 89 ad 94 3d 24 a7 63 be be 02 64 be 04 81 89 3d
       0.07259662 -0.22231728 -0.22266671 0.06714061
000220 89 ff 10 3e a4 9d 14 be 79 6a de 3d b2 74 05 3e
       0.14159979 -0.1451326 0.10860152 0.13032797
000230 56 65 a7 bd 2a cf 86 bd 7e b6 8a 3d 3e 94 09 bd
       -0.08173625 -0.06582482 0.06773089 -0.03358864
000240 8c 24 20 be 14 15 05 bf ef 15 89 3d c2 0f 47 be
       -0.15638942 -0.5198529 0.066936366 -0.19439605
000250 24 6f 69 3c d1 d6 3d 3d 53 9b cc be 1d 27 fd 3c
       0.014247689 0.046347443 -0.39962253 0.03090244
000260 9a 5f 39 3e 30 92 da be 3a d1 b5 bd 2c 04 bb be
       0.18102875 -0.42689657 -0.088777974 -0.3652662
000270 62 29 1d 3d 86 85 a5 3c 11 2e 48 3c 85 14 9e be
       0.038369544 0.02020527 0.012218014 -0.3087503
000280 8e a7 76 3e 5a 3b d9 bd ea 2b 80 bd 3b e7 a5 bd
       0.24087355 -0.106070235 -0.06258376 -0.08100744
000290 71 7b cd be e9 4a 8b 3d 13 4c 28 be 1e 88 58 3d
       -0.4013324 0.06801397 -0.1643527 0.052864186
0002a0 9b cb a9 3d f0 33 fd bd 09 17 f4 be 3b 8c 9c 3d
       0.08290788 -0.12363422 -0.47673824 0.07643934
0002b0 64 0b 09 be d6 ac 94 3d 02 31 84 3d 69 16 b0 3e
       -0.13383251 0.07259528 0.0645466 0.34392098
0002c0 7d 70 68 be 20 35 68 3d 4d 1f 7c 3d 83 57 60 be
       -0.22699161 0.05669129 0.06155329 -0.21908383
0002d0 27 db a2 bd 9c da 86 bd 9a cf 3d be 9a d8 8b be
       -0.07951956 -0.06584665 -0.18536225 -0.2731369
0002e0 a9 0b 8b be a3 ad 69 be 65 5b de bd c1 80 2b 3d
       -0.27157333 -0.22820143 -0.10857276 0.041870836
0002f0 95 ee a6 3e 01 0f 55 3e f3 63 de bc 56 e0 b0 3c
       0.326039 0.20806505 -0.027147269 0.021591347
000300 02 8e 82 3d fa 81 1f be 92 4a 84 bd be 28 86 3d
       0.06374742 -0.15576926 -0.06459536 0.0655074
000310 a1 43 3f be d9 d6 4d be 11 55 f3 3d 85 6f 36 be
       -0.18678142 -0.20101489 0.118814595 -0.17815979
000320 97 7b 4d 3d 83 95 da 3d 09 ea b1 3c 6c 97 a0 3d
       0.050166693 0.10673048 0.021718042 0.078413814
000330 03 cd 4a bd 5b 4f 56 be fc 05 87 be ab b4 2c 3d
       -0.04951192 -0.20928709 -0.26371753 0.042164486
000340 84 49 94 be 75 74 3d bd f2 be bc bd 4c 6c 44 3d
       -0.28962338 -0.04625364 -0.092161074 0.047954842
000350 a0 b6 99 be c4 c3 87 be 10 73 84 be b0 5b e5 3e
       -0.30022144 -0.26516545 -0.25869036 0.44796515
000360 ff cc 05 bf ad 87 ec bc db 90 e8 bc 67 c2 16 bd
       -0.52265924 -0.028873289 -0.028389385 -0.03680649
000370 d5 45 a4 bd 68 bd 3e bd c1 0e 1c 3e 6b 45 f4 3c
       -0.08021132 -0.04656735 0.15240003 0.029818257
000380 4a de 84 3d f4 8f d5 bd ec 03 82 3d 6f c6 34 3c
       0.06487711 -0.104278475 0.06348404 0.011033638
000390 78 52 e8 bd 34 70 4d 3d d3 f3 37 be 27 db be 3b
       -0.11343855 0.050155833 -0.17964105 0.005824465
0003a0 2e 8e 80 3d 32 8c 50 bd 74 1a 01 3e 4c 97 5e 3d
       0.062771186 -0.05091495 0.12607747 0.054343507
0003b0 79 8e 08 3d 09 6b f8 bd 17 96 a1 bd 89 58 00 3d
       0.033338998 -0.1212979 -0.078899555 0.031334434
0003c0 2b 68 61 be 7e b0 2d bd d6 e5 04 bb fd f2 07 be
       -0.22012393 -0.042404644 -0.0020278594 -0.13276286
0003d0 02 23 9a bd 17 29 c0 bd ba 3c b5 be ca 17 ad bd
       -0.075262085 -0.09382837 -0.35397893 -0.08451803
0003e0 fa 58 1f 3e cd a6 92 3d 46 41 c3 3d 9b d3 e4 bd
       0.15561286 0.07160721 0.09533934 -0.11173173
0003f0 de b6 90 be 56 c0 53 be c4 c6 68 bd de 89 7e 3d
       -0.28264517 -0.20678839 -0.056830183 0.0621432

actor.0.weight f4 [512, 33]
000000 8f 81 d6 be 9d 82 79 3e b2 62 e0 3d 5f 6b 3e bd
       -0.4189572 0.24366231 0.10956325 -0.046489116
000010 cd a9 0b 3f 37 11 90 be e2 95 2d 3f da 2e 82 bd
       0.5455597 -0.28138134 0.6780683 -0.063565925
000020 38 a7 b0 3c 85 b8 78 be 41 95 97 bd fb 43 32 3e
       0.021564111 -0.24289139 -0.07401515 0.17408745
000030 47 c9 a7 3e d1 8a 6b bd dd 1a df 3e b0 7d 02 3e
       0.3277075 -0.057505433 0.43575183 0.12743258
000040 b9 4f 9f be cd 02 d4 be 98 ff 03 3f d3 cf e7 be
       -0.3111551 -0.41408387 0.5156188 -0.45275745
000050 5f fe 27 3e 8a 8e e2 be 28 c1 5b be 3b 11 37 be
       0.16405629 -0.44249374 -0.21460402 -0.17877667
000060 e7 fa 41 3e 96 e8 66 be 14 52 68 3d 72 8c 76 3f
       0.18943368 -0.22549662 0.0567189 0.9630805
000070 33 60 f2 bd f8 2f c2 3c 0a 69 5d bf a0 57 c5 3b
       -0.11834755 0.023704514 -0.864884 0.0060224086
000080 ef eb 18 3f ed cd c9 3d b4 24 41 3f aa 78 2e be
       0.59735006 0.0985373 0.7544663 -0.17038217
000090 a9 f2 4c be 99 98 2b be eb a5 c1 3e 08 f3 8b bd
       -0.20014443 -0.1675743 0.37821898 -0.06833464
0000a0 12 47 60 3e 0b e5 78 3e f7 1e ae be 45 7a 47 3d
       0.21902111 0.24306123 -0.34008 0.04870059
0000b0 8a f9 95 3d db 59 bc be b4 fe 23 be b3 37 53 3c
       0.073229864 -0.36787304 -0.1601513 0.012891698
0000c0 f3 d5 50 be d0 7d 07 be 90 96 10 be 25 d5 19 3e
       -0.20394115 -0.13231587 -0.14119935 0.15022714
0000d0 a1 6f 29 be 9c 8f 3a 3e 77 2a 99 be d4 b9 92 be
       -0.1654649 0.18218845 -0.2991521 -0.286574
0000e0 54 07 3e 3e d7 c3 87 bd 7c 3c 59 be b6 5a 71 3e
       0.18557483 -0.0662915 -0.21214479 0.2356976
0000f0 90 eb 3e 3f 75 79 81 3d be 64 92 3d 1a da 31 bf
       0.7457819 0.06321994 0.07148121 -0.6947342
000100 e0 c5 20 3e 7d ba 96 bf cf ed f0 bd 49 13 00 3d
       0.15700483 -1.1775662 -0.117641084 0.03126839
000110 d9 20 00 3e 42 03 9e 3d dc c8 f5 3e 41 bf 1e 3f
       0.1251253 0.07715465 0.48004806 0.6201058
000120 d7 b4 54 be b8 fe 88 be 07 dc 28 3e 42 9e d7 be
       -0.2077211 -0.26756835 0.16490184 -0.4211293
000130 88 16 d5 3d a4 cf 79 be 1e 86 9c be 44 dd 02 be
       0.10404688 -0.24395615 -0.30571073 -0.12779719
000140 4a 4d a1 3e 14 4a 28 be 54 fc 2b be f2 f2 6a bf
       0.3150428 -0.16434509 -0.16795474 -0.91776955
000150 6f d1 10 3e 51 e9 33 be 1e b9 9b 3e 87 bf 5d be
       0.14142393 -0.17569472 0.3041467 -0.21655093
000160 5f 9d 8e be 00 70 0b 3e be 77 a1 3e 8d cb 8f bd
       -0.2785444 0.13616943 0.3153667 -0.07021246
000170 c2 6f 8d 3d de 5c 1f 3f de 31 89 3e a0 02 2e bc
       0.06906082 0.6225108 0.26795858 -0.010620743
000180 f8 bb 20 bf f4 39 df bd 82 3e 63 3e f4 1a 86 be
       -0.6278682 -0.108997256 0.22191814 -0.2619244
000190 f0 52 36 bd ed 0e 86 be da 47 68 be 42 77 80 bf
       -0.04451269 -0.26183262 -0.22683659 -1.0036395
0001a0 f6 4b 6a be d8 1b 99 3c 77 64 96 3d 92 f2 ff 3e
       -0.2288054 0.018690035 0.07343381 0.49989754
0001b0 eb 51 ab be 58 1d 2b 3e 4f 77 07 3d 1e a8 b2 bd
       -0.33460936 0.16710413 0.033072766 -0.08723472
0001c0 c5 8a 8b be 41 21 32 bc 79 06 a7 3d 2c 35 91 be
       -0.2725431 -0.010872186 0.081555314 -0.2836088
0001d0 00 52 74 be e4 a9 99 3e 74 04 64 3e 64 ec 81 3e
       -0.23859406 0.3001243 0.22267324 0.25375664
0001e0 dd 44 11 bd 57 90 ae bd 3b 72 93 be 46 65 b6 bd
       -0.035466064 -0.085236244 -0.28798088 -0.08906035
0001f0 a9 4c fd bc 7e 18 ff 3d ac 2d 35 3f 18 0d 6f 3d
       -0.030920343 0.124558434 0.70772815 0.058362097
000200 32 47 2d 3e 57 cc e5 be 64 62 f9 3d 60 c7 1f 3f
       0.1692169 -0.4488246 0.1217697 0.624136
000210 ed 66 20 3e e8 22 05 3f 08 06 02 be fe 5c f7 be
       0.15664263 0.5200639 -0.12697613 -0.48313135
000220 5e 9e 3b be 29 37 c1 3e 28 08 d9 bd e7 90 d4 be
       -0.18322131 0.37737396 -0.10597259 -0.41516802
000230 ee 3e 5c 3e d9 78 91 3b eb cb b7 3e 50 47 c0 be
       0.21508381 0.004439455 0.35897765 -0.37554407
000240 bf 91 bc 3e 20 97 e4 bd 9a 9b 35 3f 39 6d 51 3e
       0.36829945 -0.11161637 0.70940554 0.20451821
000250 21 c3 55 bd 0e 00 d4 be 9e 5f a9 bd 6a 3c 07 bf
       -0.052188043 -0.41406292 -0.08270191 -0.5282656
000260 21 07 03 3d 3e b7 12 3e 48 46 15 3e 78 f9 46 be
       0.03198922 0.14327714 0.14577591 -0.19431102
000270 e0 0a 41 3c ee 7e 44 3d 4c ab 08 bd 3b 3a 1d 3f
       0.011782378 0.047972612 -0.033366486 0.6141698
000280 29 ec 3b be 31 03 27 be 3f 6e 29 bf ce 3c 2d 3e
       -0.18351807 -0.16309811 -0.6618385 0.16917726
000290 df e8 14 3f fd 89 38 3e 0c e2 bf 3b a1 f9 6f be
       0.58167833 0.18021388 0.0058558043 -0.2343507
0002a0 82 7a f8 bd 05 e5 4e bc 84 4c ee 3d a7 da 7a 3e
       -0.121327415 -0.012627845 0.11635688 0.24497472
0002b0 0c f8 9f 3d 5b dd 30 3e 23 70 aa bd 5e d4 84 be
       0.07810983 0.1727194 -0.0832217 -0.25943273
0002c0 f3 27 a9 bd 77 c3 79 3e be e3 da 3b b8 0a ff 3d
       -0.08259573 0.2439097 0.006679981 0.12453216
0002d0 18 a3 96 be ff e0 85 3e f2 c4 06 be ad 8b 2e bf
       -0.29421306 0.2614822 -0.13161066 -0.6818188
0002e0 2c 97 0f be 50 9f fa bd 32 ba 0b 3d f5 46 aa be
       -0.14022511 -0.12237418 0.034113117 -0.3325726
0002f0 df fc 53 3e 2d 2b 0e be c9 db c8 3e 1a 9d 00 be
       0.20701931 -0.13883658 0.39230183 -0.1255993
000300 41 11 06 3f ed 60 bb 3e a0 a7 c4 3d 53 2a 40 bf
       0.5237008 0.36597386 0.096022844 -0.7506458
000310 8c d6 b6 bd 08 0c 44 bf 44 8a 3b 3e 54 b6 b9 3e
       -0.0892764 -0.7658086 0.18314463 0.36271918
000320 33 80 f4 3c 0d 0c 9e be 37 56 b6 3d 13 38 f5 bd
       0.029846286 -0.3086857 0.08903163 -0.11973586
000330 cf ac 39 3e 19 d8 26 3e 95 7c d6 3e 50 6b 83 3e
       0.18132327 0.16293372 0.41891924 0.2566781
000340 ec 2f 85 be a9 d9 7d be ad e1 29 be e1 9d 73 be
       -0.26013124 -0.24790062 -0.16589995 -0.23790695
000350 bc 55 f2 3e 05 91 fa bb 70 b2 9f 3e 70 50 b7 bd
       0.47331035 -0.007646682 0.31190825 -0.08950889
000360 41 f1 92 bd 56 9c 10 bf 33 cc aa bd 81 67 61 be
       -0.07174922 -0.5648855 -0.08339729 -0.2201214
000370 ee 4f 2d 3e ce ff a5 bd d8 e7 5e 3e 35 40 c0 bb
       0.16925022 -0.081054315 0.21768129 -0.005867029
000380 d9 88 c1 bd 93 37 2b 3f 00 51 74 bd 74 71 de 3d
       -0.0944993 0.66881675 -0.05964756 0.10861483
000390 cf b3 44 bf 7e 77 0c be 06 7e 1a 3f 9c d5 6b be
       -0.76836866 -0.13717458 0.60348547 -0.23030704
0003a0 86 22 94 3e fa 63 ae 3d e1 1b f2 3c 40 c1 8e be
       0.2893259 0.08515163 0.02955431 -0.27881813
0003b0 ad 28 f9 be 58 72 4a ba fb c9 3d be 52 9b 36 bf
       -0.48663846 -0.0007722727 -0.1853408 -0.7133075
0003c0 d3 d7 9d be 50 99 a4 3e 52 f0 25 be c7 1f 96 3e
       -0.30828723 0.32148218 -0.16204956 0.2932112
0003d0 13 c2 2a bc 19 2d 69 3e 0c 91 3e be 36 13 95 be
       -0.010422247 0.2277111 -0.18610018 -0.2911622
0003e0 4c 46 81 3d 54 6d 2c 3f 12 f1 b1 3e 47 d6 2f be
       0.06312236 0.6735432 0.34754235 -0.17171584
0003f0 bd 98 ce 3e f5 af 40 3e 70 77 78 bd 9e 1e ba bd
       0.40350905 0.18817122 -0.06066078 -0.09087871

actor.0.bias f4 [512]
000000 2a ec 26 bf 16 1b 1d bf 1e 66 3b bf c4 86 19 bf
       -0.6520411 -0.61369455 -0.73202693 -0.5997126
000010 9d c8 33 bf c9 d9 0b bf c1 6c 3d bf 0a 9f 3a bf
       -0.70227987 -0.5462919 -0.7399407 -0.72898924
000020 4d ea e0 be 45 36 1a bf 56 60 61 bf d0 36 35 bf
       -0.43928757 -0.6023906 -0.8803762 -0.7078676
000030 98 f7 71 bf 91 52 26 bf 3a 58 e2 be a4 75 20 bf
       -0.94518423 -0.64969736 -0.44207937 -0.62679505
000040 67 b1 1c bf a2 50 18 bf 88 81 8f bf 90 3c 4f bf
       -0.61208194 -0.59498036 -1.1211405 -0.80951786
000050 6e 89 18 bf c7 5f fe be 69 e9 2d bf f7 e0 35 bf
       -0.595847 -0.49682447 -0.6793428 -0.71046394
000060 42 6c 6a bf 7e d0 55 bf b2 86 b8 be 20 9b ed be
       -0.9157144 -0.8352126 -0.36040264 -0.46407413
000070 97 f6 bf be 70 b9 dd be c7 36 a2 be 73 cb 05 bf
       -0.3749282 -0.4330554 -0.31682417 -0.52263564
000080 04 2c ff be 06 7c 26 bf e2 30 28 bf e0 81 57 bf
       -0.4983827 -0.65032995 -0.6569959 -0.8418255
000090 7b ca 65 bf 02 3a 6f bf 12 c3 66 bf 0f 59 d7 be
       -0.89762086 -0.9344789 -0.90141404 -0.42060134
0000a0 1d f6 53 bf 66 2e 7e be be 71 ee be f7 cd 42 bf
       -0.82797414 -0.24822387 -0.46571153 -0.7609553
0000b0 c8 6e 42 bd 40 a5 e6 be be 3d 16 bf 35 10 0e bf
       -0.04746893 -0.4504795 -0.5868796 -0.5549348
0000c0 8c 34 77 bf 12 4b 00 bf d9 b8 44 bf 13 ad 43 bf
       -0.96564555 -0.5011455 -0.76844555 -0.76435965
0000d0 44 da 10 bf 3c 1e 37 bf a7 07 15 bf 8d b3 15 bf
       -0.56583047 -0.7153051 -0.582148 -0.584771
0000e0 20 0c b3 be cb d9 f9 be da 0b 28 bf 26 33 08 bf
       -0.34970188 -0.48798975 -0.65643084 -0.53203046
0000f0 6f 0e 1c bf 87 cf c3 be 68 4b 03 bf 53 39 63 bf
       -0.60959524 -0.38244268 -0.51286936 -0.88759345
000100 19 8b 71 bf 7a d0 22 bf 30 85 80 bf ef 14 7a bf
       -0.9435287 -0.6359936 -1.0040646 -0.9768819
000110 59 16 09 bf 8b 59 ed be 1b b3 4b bf 97 43 8a be
       -0.53549725 -0.46357378 -0.7957017 -0.27004692
000120 f2 6f eb be 00 26 32 bf b5 f5 07 bf e2 67 91 bf
       -0.45983845 -0.69589233 -0.53109294 -1.1359828
000130 c7 a6 49 bf 3d c1 05 bf 4d f1 fc be 01 3a 6b bf
       -0.7877011 -0.52247983 -0.49402848 -0.9188538
000140 f7 68 5d bf f3 66 bb be f5 10 f1 be d2 dc 55 bf
       -0.8648829 -0.36601982 -0.4708325 -0.8354007
000150 96 69 f9 be e0 d7 2a bf d4 f9 59 bf 62 b0 4d bf
       -0.48713368 -0.6673565 -0.8514683 -0.80347264
000160 f0 0b 36 bf 4b 68 31 bf 28 82 38 bf db 66 2c bf
       -0.71111965 -0.69299763 -0.720736 -0.67344445
000170 ae 0a 3f bf c0 57 a4 be 43 70 21 bf 5d 97 1e bf
       -0.7462567 -0.32098198 -0.6306192 -0.6194971
000180 ef bc 15 bf a2 bc d1 be 9c 6c 92 be ac b4 11 bf
       -0.58491415 -0.40964228 -0.28598487 -0.5691631
000190 a1 ec 8d bf ad e4 32 bf d4 0e 1e bf 67 70 4d bf
       -1.1087838 -0.6988018 -0.61741376 -0.8024964
0001a0 81 29 82 be 09 4b 64 bf 66 ee bb be 27 c3 53 bf
       -0.2542229 -0.89176995 -0.3670532 -0.82719654
0001b0 32 a0 ce be cf 0e 17 bf c6 5a 7e bf 1e 21 46 bf
       -0.40356594 -0.5900697 -0.9935726 -0.7739428
0001c0 7d 19 c8 be 4a bc 1e bf e5 3a 38 bf e8 ea 30 bf
       -0.39081946 -0.62006056 -0.71964866 -0.6910844
0001d0 3a 4d 3c bf ef 27 28 bf a3 5c 43 bf a7 14 f2 be
       -0.7355534 -0.65685934 -0.7631323 -0.4728138
0001e0 35 fb 0d bf 65 a1 10 bf 66 70 1f bf 90 a1 38 bf
       -0.55461437 -0.5649627 -0.6228088 -0.72121525
0001f0 53 98 37 bf cf 21 43 bf 69 82 06 bf 17 41 25 bf
       -0.71716803 -0.7622346 -0.5254274 -0.64552444
000200 aa 55 58 bf ef 28 18 bf cb b7 6a bf 08 e1 42 bf
       -0.84505713 -0.5943746 -0.91686696 -0.7612462
000210 c5 7a fe be 0d cf cf be 1e f6 dc be 2a 06 8e bf
       -0.4970304 -0.40587655 -0.43156523 -1.1095631
000220 47 3e 4e bf 9a 6a 6f be 0e 87 18 bf 78 71 3f be
       -0.8056378 -0.23380509 -0.5958108 -0.18695629
000230 dd 35 25 bf 5a fd e7 be 13 0b 79 bf 79 11 25 bf
       -0.64535314 -0.4531048 -0.9728252 -0.64479786
000240 6d 26 e1 be a1 21 0f bf 72 f7 40 bf a3 ae 5d bf
       -0.4397463 -0.5591069 -0.7537757 -0.865946
000250 f4 79 4a bf dc fe 4a bf 59 7f 05 bf 84 6b 82 bf
       -0.79092336 -0.79295135 -0.5214744 -1.0189061
000260 bc 50 5d bf 1a 96 3c bf 84 d1 f1 be 50 cd 25 bf
       -0.86451316 -0.73666537 -0.4723016 -0.64766407
000270 2e bf 02 bf f9 58 e6 be ef 90 da be 0a c1 3d bf
       -0.5107297 -0.44989756 -0.426887 -0.7412268
000280 77 69 cf be ef 0e 36 bf ef b9 52 bf 6d 8f 29 bf
       -0.4051015 -0.71116537 -0.8231496 -0.66234475
000290 42 1d 5f bf d0 3f 2c bf ed 23 56 bf cd e0 10 bf
       -0.8715402 -0.6728487 -0.8364857 -0.5659302
0002a0 75 de f5 be 4c cb 0b bf 42 b6 68 bf e6 f4 94 be
       -0.48021284 -0.5460708 -0.90903103 -0.29093093
0002b0 88 e3 08 bf 74 7c ea be 0c 55 42 bf 32 b2 06 bf
       -0.53472185 -0.45798075 -0.7591102 -0.52615654
0002c0 a2 f6 3e bf 9d f8 45 bf 69 cf 81 bf e7 07 f0 be
       -0.7459508 -0.7733248 -1.0141422 -0.4688103
0002d0 9f 7c 02 bf f9 0a 42 bf 0b 4d 1a bf 75 0f 62 bf
       -0.50971407 -0.7579799 -0.6027381 -0.88304836
0002e0 4f bb 15 bf 74 0f 27 bf 48 49 04 bf 25 18 5d bf
       -0.58488935 -0.65257955 -0.5167432 -0.86364967
0002f0 f4 e2 00 bf b4 8d 58 bf 26 2e 86 bf ff dd 3a be
       -0.50346303 -0.8459122 -1.0482833 -0.18248747
000300 92 d9 36 bf ea a8 54 bf d8 b3 00 bf 03 28 e1 be
       -0.71425736 -0.8307024 -0.5027442 -0.4397584
000310 5b 19 4f bf ae 69 c4 be 92 86 32 bf 76 3a a0 be
       -0.80898064 -0.38361877 -0.6973659 -0.31294602
000320 2f 59 06 bf 8d 38 56 bf d2 df 47 bf 45 cd 53 bf
       -0.52479833 -0.8368004 -0.780759 -0.8273509
000330 90 6f 53 bf aa 31 4e bf 2e ba 29 bf ba be 0c bf
       -0.82592106 -0.8054453 -0.6629971 -0.54978526
000340 c8 0e f9 be ac 53 32 bf 7d 62 78 bf 1a c5 47 bf
       -0.4864409 -0.69658923 -0.9702528 -0.7803513
000350 8b 64 2c bf e7 68 3d bf fb 3f 6e bf d3 b8 3a bf
       -0.67340916 -0.73988193 -0.93066376 -0.7293827
000360 ed f0 34 bf 1a 23 23 bf 0b 7f 4c bf 76 bc fe be
       -0.70680124 -0.63725436 -0.7988135 -0.4975316
000370 4a d3 10 bf b6 40 25 bf 65 d3 2f bf 93 64 dc be
       -0.565724 -0.64551866 -0.6868194 -0.43045482
000380 ee d2 96 be d6 2a 84 bf a5 c1 2a bf 8a 1a 33 bf
       -0.29457802 -1.0325572 -0.6670173 -0.6996237
000390 e3 ab f9 be 36 1d d8 be 0e bd 36 bf 3b 87 03 bf
       -0.48763952 -0.42209786 -0.71382225 -0.5137822
0003a0 5e 84 35 bf aa 26 53 bf e2 93 01 bf 25 c7 49 bf
       -0.709051 -0.8248087 -0.50616276 -0.78819495
0003b0 b7 61 06 bf 42 25 64 bf 30 81 43 bf 22 5c 3e bf
       -0.5249285 -0.8911935 -0.76369 -0.74359334
0003c0 6d 65 15 bf 53 cb 76 bf 4f ce 9a be 2d 86 08 bf
       -0.5835789 -0.96404 -0.30235526 -0.53329736
0003d0 2f 17 86 bf 03 f4 14 bf 0e 39 39 bf 7a 27 37 bf
       -1.0475825 -0.5818483 -0.72352684 -0.7154461
0003e0 59 3d 5d bf 5e 53 29 bf ab ef 1a bf 75 d2 0b bf
       -0.86421734 -0.66142833 -0.60521954 -0.54618007
0003f0 16 b7 ca be d9 e7 27 bf 1b c8 14 bf 34 89 01 bf
       -0.39592808 -0.65588146 -0.58117837 -0.5059998

actor.2.weight f4 [4, 512]
000000 1e a5 2a be 9a d6 24 3e 0a 55 16 be 95 c8 5d bd
       -0.1666455 0.16097489 -0.14680877 -0.054146368
000010 27 21 80 be 74 59 fa 3d 31 99 53 be 30 ab 1a 3d
       -0.25025293 0.12224093 -0.20663907 0.037760913
000020 e5 a3 b5 3d e6 1e df bd cd f4 e8 bc ad fb e7 bd
       0.08869151 -0.10894565 -0.028437043 -0.113273
000030 4e 53 39 be 51 91 1f 3d 87 c4 46 be ed 56 8f 3d
       -0.18098184 0.038956944 -0.19410907 0.06999002
000040 6d 75 a2 3e 10 f9 5a be e3 29 d2 3c be 9f 44 be
       0.31730214 -0.21384072 0.025654739 -0.19201562
000050 84 db 2d bc 65 01 16 3e f4 f1 af 3e 32 4b 8f be
       -0.010611419 0.1464897 0.34364283 -0.27987057
000060 ef 43 0e bd c2 8f a4 bc 24 f3 22 3d 17 04 ee bd
       -0.034732755 -0.02008808 0.03978266 -0.11621874
000070 6d 19 c4 3d a9 55 1e 3b 75 e2 61 bd ce 09 0e 3e
       0.09575162 0.0024159944 -0.055147607 0.13870928
000080 73 07 c6 3c 21 71 e8 3d f7 45 9a 3e de c7 36 3e
       0.024173474 0.113497026 0.30131504 0.17849681
000090 af e6 22 3e 80 c6 99 bd 09 99 73 3e 0a 43 75 3d
       0.15908311 -0.07508564 0.23788847 0.059878387
0000a0 26 6b 9e 3e ea c7 15 3d 1e e0 20 be df 16 bc bd
       0.30941123 0.036567606 -0.15710494 -0.0918405
0000b0 af f5 05 3d f4 1c 1e be 21 30 1c 3e af 6b 03 3e
       0.032705005 -0.15440732 0.15252735 0.12834047
0000c0 3d 4d 9a 3d 63 12 86 bd 08 21 b5 3e d4 e9 94 be
       0.07534263 -0.06546476 0.35376763 -0.29084647
0000d0 96 3e dc 3d db 08 07 be 0a ac 10 be ab 0c a3 bd
       0.10754125 -0.13186972 -0.14128128 -0.079614006
0000e0 22 80 89 3d 11 ca 08 3e 80 1c b0 3c e0 17 85 bb
       0.067138925 0.13358332 0.021497965 -0.004061684
0000f0 c1 20 8c bc 6b 5e 99 3d 85 41 0c be 09 3c bb 3d
       -0.017105462 0.07488712 -0.13696869 0.0914231
000100 2c 03 2b be 13 2c af bc 51 d2 2b 3d b9 be ac be
       -0.16700429 -0.02138332 0.04194862 -0.3373926
000110 02 d2 25 3e 8c d7 53 bd 1f 2f 1d 3e 9b 50 35 be
       0.16193393 -0.051719233 0.15350007 -0.1770653
000120 c8 e4 16 3e 2c 5f 89 3d 93 f1 c5 bd 11 4f 49 3e
       0.1473571 0.06707606 -0.09665217 0.19659068
000130 28 72 d1 bd e9 3b 43 be 27 6d 46 3e d7 5f 8d 3e
       -0.10226852 -0.19065823 0.19377576 0.27612182
000140 33 fd bf 3d 9b 4f 87 3c bc 75 ef bd 6a 63 05 3e
       0.09374466 0.016517451 -0.11692378 0.13026205
000150 9b 78 72 be ae 2c 14 be e5 da 4a 3d 53 c5 0e be
       -0.2367882 -0.14470169 0.04952516 -0.1394246
000160 82 a3 55 be 0b e7 11 3e 99 86 cb 3e c4 ed fe 3c
       -0.20863155 0.14248292 0.39751127 0.031119235
000170 b6 38 58 3c 30 dc 2c be 14 6f d1 3e 1c f5 f0 3d
       0.013197115 -0.1688087 0.40905058 0.11765501
000180 13 93 90 3e da b4 34 bd 37 c9 25 be e2 e6 45 3d
       0.2823721 -0.044117786 -0.16190039 0.04831589
000190 72 65 0b 3e ea d7 71 3e a4 a7 e6 bd 1e d5 56 3c
       0.13612917 0.23617521 -0.11262444 0.013112335
0001a0 b8 8c 52 bd 47 04 cf be 87 5a 97 3d b6 54 7c be
       -0.05140373 -0.4043295 0.073903136 -0.2464169
0001b0 d4 67 5d bd 57 76 4a 3e 34 54 bb bd b1 fb 67 3e
       -0.054054096 0.19771706 -0.0914692 0.22654606
0001c0 6c 66 05 be ac 2e ab 3d 03 e2 03 3e 1a 5d 59 bd
       -0.13027352 0.08358511 0.12879185 -0.053067304
0001d0 cb c7 6a 3e 07 af cd 3c 52 51 99 3d f7 1d 28 3e
       0.22927777 0.025107874 0.07486214 0.1641768
0001e0 e2 b2 c0 3c 42 dc 23 3e b3 da b5 bc d9 fc 15 be
       0.023522798 0.1600199 -0.02219901 -0.14647235
0001f0 c8 de 42 3e 88 2e dd 3d 22 d7 fb bc 9a c5 24 3e
       0.19030297 0.10799891 -0.030742232 0.16091004
000200 61 5f 57 be 52 4b 04 3e bb 4e 94 bc 47 b8 11 3d
       -0.21032478 0.12919357 -0.018103948 0.03557613
000210 b0 01 12 3c d4 43 20 be ff e4 55 bc d0 99 26 3e
       0.008911535 -0.15650874 -0.013055085 0.16269612
000220 f8 bf 89 3d 58 28 b0 be 2c 43 b3 3d ba f4 a0 be
       0.06726068 -0.3440578 0.087530464 -0.31436712
000230 7a 31 89 bd 0f b4 0b 3e e8 18 cd bd ec cf 8c 3d
       -0.0669889 0.13642906 -0.10014516 0.068755955
000240 86 cc e0 bc f8 03 ef bd 01 a8 b4 bd e7 09 7e be
       -0.027441274 -0.11670679 -0.08821107 -0.24808465
000250 6f a1 99 3e 02 7b 85 be e7 fe ab bc 97 2c a8 be
       0.30005977 -0.2607041 -0.02099557 -0.3284652
000260 7d a5 56 3e 73 e9 90 3e 39 a4 4e bd ea 60 b4 bc
       0.20961566 0.28303108 -0.050449584 -0.022018868
000270 3b a7 4a 3c ae 56 e4 bc 6b 7d 88 be b6 a4 a4 bd
       0.012368972 -0.027873363 -0.26658186 -0.080392286
000280 da 4b f9 3d 64 ea 1e 3e 51 23 1e be b8 c7 08 3e
       0.12172671 0.155191 -0.1544316 0.13357437
000290 96 80 d7 3e 1f 51 dc 3e 38 2f d1 bd 72 68 e0 bd
       0.4209029 0.4303064 -0.102140844 -0.10957421
0002a0 9b 1e 17 bd 1a 7f 7f 3e 89 e5 58 bd 4b dc 80 bc
       -0.036894422 0.24950829 -0.052953277 -0.015730044
0002b0 76 a0 67 3e 7e 84 be 39 98 7c 94 bd 93 b0 92 be
       0.22619805 0.00036338338 -0.07250327 -0.2865034
0002c0 b3 6d 91 bb bd 0c df bd ce df 95 bd fe f9 04 3d
       -0.004438126 -0.108911015 -0.07318078 0.032464974
0002d0 e2 93 03 be 61 b7 8d 3d 61 87 5b be 5f c8 0a bd
       -0.12849382 0.069197424 -0.21438362 -0.033882495
0002e0 aa 01 aa bd 46 e7 ab 3d a8 f6 8d 3e 55 94 06 be
       -0.08301099 0.08393721 0.27727246 -0.13142522
0002f0 25 dc 01 3e 53 52 6e 3e 62 33 7d bc 9f 3b 37 3d
       0.12681635 0.23273592 -0.015454145 0.044734593
000300 88 7b d8 bd 3f a9 09 3e 66 20 99 bd 27 ac be bc
       -0.10570437 0.13443469 -0.07476883 -0.023275448
000310 81 41 fd 3e 70 fb 7f bd d1 83 1d be 54 fa dd 3d
       0.49464038 -0.06249565 -0.15382315 0.10838762
000320 f5 e3 0c be ec d8 3d bc d9 34 9b 3d 1e 99 b3 bd
       -0.13758834 -0.011587363 0.07578439 -0.08769439
000330 de d7 f0 bd 75 ac 55 be ad e7 99 bd e6 82 42 3d
       -0.117599234 -0.20866568 -0.07514892 0.047488116
000340 98 0b 57 be 1a ad 98 bd aa e7 1b be 7f 62 a4 bd
       -0.21000516 -0.074548915 -0.15225092 -0.08026599
000350 81 49 63 3e 49 7d 55 bd 08 9a 09 3d b0 76 d2 be
       0.22196008 -0.052121434 0.03359416 -0.41106176
000360 30 c3 54 3d 57 54 66 3d fe 83 0e 3e 38 7d c3 3d
       0.051943958 0.056232776 0.13917539 0.09545368
000370 7d 37 41 3e c2 a3 c0 3d ef 4d 28 be 51 94 ad 3d
       0.18868823 0.09406234 -0.1643598 0.08475555
000380 97 bb c6 3d fa ed 46 be a9 1b 57 be fc b3 7f 3d
       0.09703749 -0.19426718 -0.21006645 0.062427506
000390 84 cf c6 3d 95 a1 7a bc 96 f9 89 3c 6f c7 35 bd
       0.09707549 -0.015297313 0.016842645 -0.044379648
0003a0 3d 7d 14 3d 70 46 74 bd 15 9b 88 bd a7 49 17 be
       0.03625225 -0.059637487 -0.066702046 -0.1477419
0003b0 47 d3 6a bc 27 90 a9 3c 67 94 91 3c 56 2b 47 3d
       -0.014332599 0.02069862 0.017770959 0.048625313
0003c0 e2 6a 92 be b6 8a 09 3e e1 61 47 bd 6a ef 72 be
       -0.2859717 0.1343182 -0.04867733 -0.23724142
0003d0 57 5d 1f bd ee c7 99 be d6 98 1d be dd 23 cf 3d
       -0.038907375 -0.30035347 -0.15390334 0.10114262
0003e0 87 c8 d4 3c b9 37 1e 3e 3a 57 3d be a2 5d 28 be
       0.025974525 0.15450944 -0.18490306 -0.16441968
0003f0 12 8f 22 3d 4e b0 91 3e a7 60 76 3d e7 5d b7 3c
       0.039687224 0.28454822 0.06015077 0.022383643

actor.2.bias f4 [4]
000000 b6 00 f8 bd ba 9f e5 3d ad 29 3f bd c3 47 0e 3e
       -0.121095106 0.11212106 -0.046670604 0.13894562
