models/ppo_best_30.pth (torch_old, 151021 bytes, 8 tensors)

log_std f4 [1, 4]
0	0xbed673d4	-0.41885245
1	0xbeb5356d	-0.35392323
2	0xbf1e56ac	-0.61851
3	0xbf1e40c2	-0.6181756

critic.0.weight f4 [512, 33]
0	0xbe3543ae	-0.17701599
1	0x3d7a22d7	0.061068382
2	0x3e00b053	0.12567262
3	0xbed902d0	-0.42384958
4	0xbec17d65	-0.3779098
5	0xbe21d20f	-0.15802787
6	0xbaf62a12	-0.0018780848
7	0x3e0929c8	0.13394845
8	0x3de2f2c1	0.11081458
9	0xbd333f85	-0.04376175
10	0xbd189aae	-0.03725689
11	0xbc7123fe	-0.014718054
12	0xbbe0834f	-0.0068515907
13	0x3d33a584	0.04385902
14	0x3e0c3813	0.13693266
15	0x3d8bbbc7	0.06822925
16	0x3ee6cbc6	0.45077342
17	0xbe30ada5	-0.1725374
18	0xbe98c859	-0.29840353
19	0xbed59b86	-0.41720217
20	0x3c55d058	0.013050161
21	0xbdc042e0	-0.093877554
22	0x3cc7380b	0.024318716
23	0xbd310eb2	-0.043226905
24	0xbc854e42	-0.016272668
25	0x3d85db90	0.06536019
26	0x3dbb7329	0.091528244
27	0x3f37eb3f	0.7184333
28	0xbe1420cf	-0.1446564
29	0x3e2a86f8	0.16653049
30	0xbf3d4ff5	-0.7395013
31	0xbb8a20a0	-0.004215315
32	0xbf102016	-0.5629896
33	0xbdcc99eb	-0.09990295
34	0xbd469f50	-0.048491776
35	0x3e28ac30	0.16471934
36	0xbd5884d8	-0.052861065
37	0x3e887a04	0.2665559
38	0xbee5df65	-0.44897
39	0x3ed64aca	0.41853935
40	0xbd4871f4	-0.0489368
41	0xbe39d7bf	-0.18148707
42	0xbcc8bad7	-0.024503155
43	0xbd329788	-0.043601543
44	0xbe0f2496	-0.139788
45	0x3d8d3c6a	0.06896289
46	0x3e4c8148	0.19971192
47	0x3d4e8e22	0.050428517
48	0x3e3ab745	0.18233974
49	0x3e0b82e3	0.13624148
50	0x3e8b3838	0.2719133
51	0x3e842fed	0.25817814
52	0xbee91f76	-0.45531815
53	0xbe6ca452	-0.23109558
54	0xbd73770f	-0.059439715
55	0x3ddaf407	0.10691076
56	0xbd3b002e	-0.04565447
57	0x3ce3c5e1	0.027804317
58	0x3e39cda0	0.18144846
59	0x3d72f3fa	0.059314705
60	0x3f7a3529	0.97737366
61	0xbe138217	-0.14405094
62	0x3db73da4	0.08947304
63	0xbf6a82d9	-0.9160591
64	0x3b0b4440	0.0021250397
65	0x3ede5905	0.43427292
66	0xbe300361	-0.17188789
67	0x3ca37fda	0.019958425
68	0xbea0d5d6	-0.31413144
69	0xbe9b1a9c	-0.3029374
70	0xbe18cae6	-0.1492115
71	0xbd64fd9e	-0.05590593
72	0xbebb9972	-0.36640507
73	0xbd9d52ce	-0.07681809
74	0x3d378175	0.044801194
75	0x3d9afc26	0.07567625
76	0xbcfd0c76	-0.03088973
77	0xbcadeed1	-0.02123204
78	0x3c693344	0.014233414
79	0x3d80df40	0.062925816
80	0x3d6495cb	0.055806916
81	0x3e36ff33	0.17870788
82	0x3ee0c8f0	0.43903303
83	0xbf1b0285	-0.6055072
84	0x3e529d85	0.20567901
85	0x3d49818b	0.049195807
86	0x3c4466ef	0.011987432
87	0xbd25d50a	-0.040486373
88	0x3b68f72e	0.0035547721
89	0x3d3ed204	0.046587005
90	0xbcbd030b	-0.02307274
91	0xbcff0f6f	-0.031135289
92	0x3d6f0a36	0.058359347
93	0x3f626b21	0.88444716
94	0xbd9eba0a	-0.07750328
95	0x3e2b9f64	0.16760021
96	0xbf305d1d	-0.6889208
97	0xbd5c50ba	-0.053787924
98	0xbf28e58a	-0.6597525
99	0xbd57b305	-0.05266096
100	0x3d9bc8ff	0.07606696
101	0xbd28fb9f	-0.04125559
102	0xbe7b87c7	-0.24563514
103	0xbf027607	-0.50961345
104	0xbf068c4f	-0.52557844
105	0x3d131a5b	0.035913806
106	0x3e02e5c7	0.12782966
107	0xbcd2e052	-0.02574173
108	0x3e1c94b7	0.15291105
109	0xbd592232	-0.053011127
110	0x3d8e783a	0.06956525
111	0x3cde2820	0.027118742
112	0xbe405e87	-0.1878606
113	0xbdbe9f6b	-0.0930775
114	0x3bd75dce	0.0065724617
115	0x3e782092	0.24231175
116	0x3ca6fb02	0.020383362
117	0xbebdc124	-0.37061417
118	0x3ec29577	0.38004658
119	0x3c25f1e0	0.010128468
120	0x3de66246	0.11249213
121	0x3c07f5ad	0.00829832
122	0xbcc98ec9	-0.024604218
123	0xbd295ffd	-0.041351307
124	0x3d508607	0.05090907
125	0x3e39470c	0.18093508
126	0x3f71d3fa	0.94464076
127	0xbdb40255	-0.08789507
128	0xbe059641	-0.13045599
129	0xbf7ae0d0	-0.97999287
130	0x3df652f4	0.12027541
131	0x3e3ce83e	0.18447968
132	0xbdba076d	-0.090834476
133	0xbd535f85	-0.051604766
134	0xbd9a771d	-0.0754225
135	0xbe56ab81	-0.20963861
136	0xbf7e67b7	-0.99377006
137	0x3d9dd3b4	0.07706395
138	0xbf553602	-0.83285534
139	0x3d767c41	0.06017709
140	0x3abe5eaa	0.0014524062
141	0xbaa11c18	-0.0012291698
142	0x3d0ebb35	0.034846503
143	0xbdb7b4f6	-0.089700624
144	0x3bfe8bc2	0.0077681253
145	0xbdb3fddf	-0.087886564
146	0x3e85771e	0.26067442
147	0x3e1656f0	0.14681602
148	0xbd93891a	-0.072038844
149	0xbe104439	-0.14088525
150	0xb9e58c46	-0.00043782796
151	0x3f23ab63	0.6393339
152	0xbcd48500	-0.025942326
153	0xbda81f24	-0.082090646
154	0xbd68ba75	-0.056818444
155	0xbcdbbcba	-0.02682339
156	0xbc38c2e1	-0.0112769315
157	0x3d87d275	0.06631938
158	0x3cf4947d	0.029855961
159	0x3f61b845	0.881718
160	0xbe12411f	-0.14282654
161	0x3e27b5dc	0.16377968
162	0xbf34f85f	-0.70691484
163	0x3e15734e	0.14594766
164	0x3e89f843	0.2694722
165	0xbe582275	-0.21106894
166	0x3d2472d0	0.040148556
167	0xbdf65d71	-0.12029541
168	0xbe8dd6d9	-0.27702978
169	0x3e4d50bf	0.20050333
170	0xbe1602be	-0.14649484
171	0x3e3ed577	0.18636118
172	0xbc0a5252	-0.008442478
173	0xbb7fcb28	-0.0039031003
174	0xbdc950f1	-0.098298915
175	0x3d82ffe7	0.06396466
176	0x3d1ae3f6	0.037815057
177	0xbd8e8895	-0.06959645
178	0x3ba4636b	0.0050167344
179	0xbd094f06	-0.03352263
180	0x3e6ca171	0.2310846
181	0xbe3e6681	-0.1859379
182	0xbe23752d	-0.15962668
183	0x3e442c81	0.19157602
184	0x3f1d5e69	0.61472183
185	0x3c80a92a	0.015705664
186	0xbd3a4fab	-0.045486134
187	0xbcd6b718	-0.026210353
188	0xbd5c74ab	-0.0538222
189	0x3c4e30d6	0.012584886
190	0xbd10549a	-0.035236932
191	0x3d7e4a85	0.062082786
192	0x3f49d82d	0.78845483
193	0xbd8517b4	-0.06498662
194	0xbdf15933	-0.117845915
195	0xbf586aeb	-0.84538144
196	0xbc686350	-0.014183834
197	0xbed4c1e4	-0.41554177
198	0xbe53cb29	-0.20682968
199	0xbdd79d7e	-0.10528086
200	0x3cb969b8	0.022633418
201	0xbe837e69	-0.2568238
202	0xbeadfa84	-0.3398019
203	0x3f42f723	0.7615835
204	0xbdf4a0a7	-0.119447045
205	0x3d931558	0.07181805
206	0xbe58efae	-0.2118518
207	0xbe96d275	-0.2945744
208	0x3c9f94e3	0.019480174
209	0xbbc660f8	-0.00605404
210	0xbd377300	-0.044787407
211	0xbe801ca6	-0.25021857
212	0x3be1e41a	0.006893647
213	0x3c7b2e3e	0.015330849
214	0xbe0fdae5	-0.14048345
215	0xbf5d7fc0	-0.86523056
216	0x3edcc0a7	0.43115732
217	0x3e9eb090	0.30994081
218	0x3c2d8d2f	0.010592743
219	0xbe2124a0	-0.15736628
220	0x3e09f96e	0.13474056
221	0xbd09738a	-0.033557452
222	0x3d92c734	0.07166901
223	0xbcfa08e8	-0.030521825
224	0xbd2aab5a	-0.04166732
225	0x3f4b5d22	0.79438984
226	0x3e0d256f	0.13783811
227	0xbdd6533c	-0.104650944
228	0xbf3dbe28	-0.7411828
229	0xbe121078	-0.14264095
230	0x3eb0f657	0.34562942
231	0x3ce4d398	0.027932927
232	0x3c321910	0.010870233
233	0x3d349f96	0.044097506
234	0xbd595e7d	-0.053068627
235	0x3e3da29b	0.1851906
236	0xbee89718	-0.45427775
237	0xbd90ec7e	-0.07076357
238	0xbd0a6ffc	-0.033798203
239	0x3d02e6d9	0.031958435
240	0x3ced3427	0.028955532
241	0xbc61d8be	-0.0137845855
242	0xbcbc07d3	-0.02295295
243	0x39d15dd1	0.00039933485
244	0x3c20c181	0.00981176
245	0xbcfad92e	-0.030621137
246	0x3be545b7	0.006996836
247	0x3e4b00f8	0.19824588
248	0x3d2036d4	0.03911479
249	0xbe3b2f10	-0.18279672
250	0xbe1ccab9	-0.15311708
251	0x3c4d98fe	0.012548683
252	0x3ce7182b	0.028209766
253	0x3ced991c	0.029003672
254	0x3c70ae50	0.014689997
255	0xbb9cee99	-0.0047891852

critic.0.bias f4 [512]
0	0xbf71b701	-0.94419867
1	0xbf374d8f	-0.7160272
2	0xbf6e4333	-0.9307129
3	0xbf7a857e	-0.9785994
4	0xbf5aed6b	-0.8551852
5	0xbf600d39	-0.87520176
6	0xbf7e77da	-0.9940163
7	0xbe771b24	-0.24131447
8	0xbf566444	-0.83746743
9	0xbf5ec21a	-0.87014925
10	0x3ca69846	0.020336282
11	0xbf0abcdd	-0.5419443
12	0xbed5ba0a	-0.417435
13	0xbe38d2d9	-0.18049182
14	0xbe804cbf	-0.25058553
15	0xbec8e235	-0.39235082
16	0xbed9fa81	-0.42573932
17	0xbf3498f9	-0.7054592
18	0xbede3297	-0.43397972
19	0xbee27883	-0.44232568
20	0xbed908ee	-0.42389625
21	0xbf23b228	-0.6394372
22	0xbe965501	-0.29361728
23	0xbf52086b	-0.82044095
24	0xbe73a5f3	-0.23793773
25	0xbe742337	-0.23841558
26	0xbf540635	-0.8282197
27	0xbf56e2ab	-0.8393962
28	0xbf2ed85f	-0.68298906
29	0xbf06aa9d	-0.52604085
30	0xbf32a208	-0.6977849
31	0xbf6fb30c	-0.9363258
32	0xbf16870e	-0.5879983
33	0xbf3a9b9c	-0.7289369
34	0xbf5ab01a	-0.8542496
35	0xbf342857	-0.70374054
36	0xbf193bd6	-0.5985693
37	0xbf3c7249	-0.73611885
38	0xbe3fa789	-0.18716253
39	0x3e920e30	0.2852645
40	0xbf40657a	-0.7515484
41	0xbf781c3f	-0.969181
42	0xbf29eb36	-0.6637453
43	0xbf59f888	-0.85144854
44	0xbf2bb7b4	-0.67077184
45	0xbe6476e4	-0.22310978
46	0xbeeef497	-0.46670982
47	0xbeea657b	-0.45780548
48	0x3c8792e1	0.01654953
49	0xbedcb88d	-0.4310955
50	0xbef08e2d	-0.46983472
51	0xbf443aed	-0.76652414
52	0xbf729c29	-0.9476953
53	0xbee9f6a5	-0.45695987
54	0xbf3f984c	-0.7484176
55	0xbf8ac671	-1.084181
56	0xbebc2e70	-0.3675418
57	0xbf393764	-0.72350144
58	0xbf7ab18f	-0.9792718
59	0xbf05c58a	-0.52254546
60	0xbf3c34b9	-0.7351795
61	0xbf15620f	-0.5835275
62	0xbf87e2f1	-1.0616132
63	0xbf4cbcb1	-0.7997542
64	0xbf4d1620	-0.80111885
65	0xbf3b964e	-0.7327622
66	0xbe65e99e	-0.22452399
67	0xbe1d430f	-0.15357612
68	0xbf5a1751	-0.8519183
69	0xbf04f1f9	-0.5193172
70	0xbf4b4719	-0.7940536
71	0xbf3d6af1	-0.73991305
72	0xbf6b9fb2	-0.9204055
73	0xbe8ac3be	-0.27102464
74	0xbe01789d	-0.12643667
75	0xbf4df74a	-0.8045546
76	0xbf4a868b	-0.79111546
77	0xbf2dc5f7	-0.67880195
78	0xbca190d6	-0.019722383
79	0xbee91548	-0.4552405
80	0xbef6c203	-0.48194894
81	0xbef9c1f8	-0.487808
82	0x3cdae311	0.026719602
83	0xbf269189	-0.6506582
84	0xbf5ac0c0	-0.85450363
85	0xbefa7c98	-0.48923182
86	0xbdff7f4f	-0.12475454
87	0xbf1b6c44	-0.60712075
88	0xbed81dbe	-0.4221019
89	0xbf4b9384	-0.79521966
90	0xbed536b9	-0.41643313
91	0xbf170fc7	-0.5900845
92	0xbf51e13d	-0.8198431
93	0xbf1df86b	-0.6170718
94	0xbf82ba7b	-1.0213159
95	0xbf628bcc	-0.88494563
96	0xbee9b655	-0.4564692
97	0xbf492f70	-0.7858801
98	0xbe3135ad	-0.17305632
99	0xbeea4136	-0.45752877
100	0xbf7e270e	-0.9927834
101	0xbf762bfa	-0.9616085
102	0xbe45c8d2	-0.19314888
103	0xbe8b73e8	-0.27236867
104	0xbe976219	-0.2956703
105	0xbeaaeab8	-0.333822
106	0xbf530854	-0.8243458
107	0xbf26741d	-0.65020925
108	0xbee13069	-0.43982247
109	0xbf2eccf8	-0.6828151
110	0xbf2b8b0f	-0.6700906
111	0xbf486df3	-0.7829277
112	0xbeb5bbd8	-0.35494876
113	0xbee925cf	-0.45536658
114	0xbf1d5b07	-0.6146702
115	0xbf3c8110	-0.73634434
116	0xbf7dc799	-0.99132687
117	0xbf0013f7	-0.50030464
118	0xbf603ffe	-0.87597644
119	0xbf102f28	-0.56321955
120	0xbf5bb9d9	-0.85830456
121	0xbf3b5d83	-0.7318956
122	0xbeeed611	-0.46647695
123	0xbf77f947	-0.9686474
124	0xbedc7cb6	-0.43063897
125	0xbf3d3067	-0.7390198
126	0xbe5f23ce	-0.21791002
127	0xbf359de4	-0.70944047
128	0xbed79454	-0.42105353
129	0xbed6cd0f	-0.41953322
130	0xbdb1df57	-0.08685177
131	0xbe4137ee	-0.18868992
132	0xbf6b59ab	-0.919337
133	0xbf51f300	-0.82011414
134	0xbea9ef0c	-0.3319019
135	0xbea4aa9d	-0.32161418
136	0xbf56a6f1	-0.8384848
137	0xbf123a25	-0.5711997
138	0xbf25ee0d	-0.6481636
139	0xbee49097	-0.44641563
140	0xbe4fe3fe	-0.20301816
141	0xbf745c3e	-0.9545325
142	0xbf35516f	-0.7082738
143	0xbf47c0e0	-0.7802868
144	0xbee9cd70	-0.4566455
145	0xbea9325f	-0.33046243
146	0xbf097113	-0.5368816
147	0xbf7a3c3d	-0.97748166
148	0xbf4df103	-0.8044588
149	0xbf0e6148	-0.5561719
150	0xbf1d7b14	-0.6151593
151	0xbf590a3f	-0.8478126
152	0xbf38bd2a	-0.7216364
153	0xbefd3d2d	-0.49460736
154	0xbd79d20f	-0.060991343
155	0xbf2c8ab9	-0.67399174
156	0xbf4da267	-0.8032593
157	0xbef79da1	-0.4836245
158	0xbef34aed	-0.475181
159	0xbf40d6ef	-0.7532796
160	0xbf12b853	-0.57312506
161	0xbdbcc98e	-0.09218131
162	0x3df2428f	0.11829101
163	0xbee0a460	-0.43875408
164	0xbf6fd99c	-0.9369142
165	0x3e201049	0.15631212
166	0xbf70bc8c	-0.940377
167	0xbed7ca62	-0.42146593
168	0xbf7d5671	-0.98960024
169	0xbedf13ab	-0.43569693
170	0x3d3aa883	0.04557086
171	0xbe79f214	-0.24408752
172	0xbf59da55	-0.85098773
173	0xbec41ae8	-0.38301778
174	0xbf09ea1c	-0.5387285
175	0xbf2b1951	-0.66835505
176	0xbee6b2b1	-0.45058206
177	0xbf65a235	-0.89700633
178	0xbeb71c5c	-0.35763824
179	0xbf693533	-0.910968
180	0xbd97b4bd	-0.0740752
181	0xbf6d3b79	-0.92668873
182	0xbe93149d	-0.28726664
183	0xbf18d742	-0.5970346
184	0xbf915cb4	-1.1356416
185	0xbf2d9801	-0.67810065
186	0xbee30234	-0.44337618
187	0xbf4fe39d	-0.81206685
188	0xbee69050	-0.45031977
189	0xbf544047	-0.8291058
190	0xbf364c07	-0.7120976
191	0xbf03a499	-0.5142303
192	0xbf396128	-0.72413874
193	0xbf34983f	-0.7054481
194	0xbf5dd945	-0.8665965
195	0xbf2f62a4	-0.6850989
196	0x3ea30541	0.31839946
197	0x3b5374e0	0.0032265708
198	0xbf77bd83	-0.96773547
199	0xbf2af3ce	-0.66778266
200	0xbf252a40	-0.64517593
201	0xbf02bf57	-0.5107321
202	0xbe958f06	-0.2921068
203	0xbf3c1b58	-0.73479223
204	0xbf7abbab	-0.9794261
205	0xbf488971	-0.7833472
206	0xbf1f1df1	-0.6215506
207	0xbf34eb96	-0.70671976
208	0xbf4915da	-0.7854897
209	0xbeaa9cc2	-0.33322722
210	0xbf806f74	-1.0034013
211	0xbf794b24	-0.9738028
212	0xbf4cd166	-0.80007017
213	0xbe6a619e	-0.228888
214	0xbf4eb6b6	-0.80747545
215	0xbf51b61a	-0.8191849
216	0xbf23b6b0	-0.63950634
217	0xbee60447	-0.44925138
218	0xbf6c8d5e	-0.9240321
219	0xbf6ca009	-0.92431694
220	0xbf549676	-0.83042085
221	0xbf4b7d06	-0.79487646
222	0xbf053857	-0.5203909
223	0xbf27396a	-0.6532198
224	0xbf1d7891	-0.61512095
225	0xbee01f50	-0.4377389
226	0xbf365606	-0.7122501
227	0xbf0ad4d0	-0.54230976
228	0xbef44d68	-0.47715306
229	0xbf03f588	-0.51546526
230	0xbf2b92fe	-0.6702117
231	0xbee6c88b	-0.45074877
232	0xbf36f4cb	-0.71467274
233	0xbe1d6b8f	-0.15373062
234	0xbf62dc56	-0.88617456
235	0xbf0ebc00	-0.55755615
236	0xbf4d8d28	-0.8029351
237	0xbf41c29f	-0.75687593
238	0xbf0b9de6	-0.5453781
239	0xbf2b9989	-0.6703115
240	0xbefe2a87	-0.4964182
241	0xbf340258	-0.70316076
242	0xbf08702a	-0.5329615
243	0xbf2c9e47	-0.6742901
244	0xbee20a67	-0.4414856
245	0xbe983360	-0.29726696
246	0xbf262b3a	-0.6490971
247	0xbf2d85fd	-0.67782575
248	0xbeeacb2a	-0.45858127
249	0xbf073232	-0.52810967
250	0xbf48907f	-0.78345484
251	0xbf492059	-0.78564984
252	0x3db59517	0.08866327
253	0xbf25813c	-0.6465032
254	0xbf7fc720	-0.99913216
255	0xbeb4899f	-0.35261247

critic.2.weight f4 [1, 512]
0	0xbb3b3e87	-0.0028571205
1	0xbdfc3d40	-0.1231637
2	0xbe69422c	-0.22779149
3	0xbe8570d7	-0.26062652
4	0xbe9b768b	-0.3036388
5	0xbddb6ee3	-0.10714509
6	0xbe4faaf2	-0.20280054
7	0xbef61875	-0.48065534
8	0xbe4be7ec	-0.1991269
9	0x3e6dc543	0.2321978
10	0xbe0f88ff	-0.14017104
11	0x3e4bfd74	0.19920903
12	0x3dd45318	0.103674114
13	0xbd3b113d	-0.045670737
14	0xbd98dce4	-0.074640065
15	0x3d8adcb3	0.06780376
16	0x3d25cab0	0.0404765
17	0xbe152586	-0.14565095
18	0xbeb4ab15	-0.35286775
19	0x3d3dcdbc	0.04633878
20	0x3d8040e0	0.06262374
21	0x3d6dc629	0.05805031
22	0x3dc3d2e7	0.09561711
23	0xbda95e1e	-0.082699046
24	0xbdf4eb0c	-0.11958894
25	0xbf189ab5	-0.59611064
26	0x3d65f5db	0.05614267
27	0xbe26ef61	-0.16302253
28	0x3e8e64db	0.27811322
29	0xbd81c339	-0.06336064
30	0xbe5aa54a	-0.21352115
31	0xbe2d3a23	-0.16916709
32	0x3e153285	0.14570053
33	0x3e39b2bc	0.18134588
34	0x3e11f994	0.14255363
35	0xbe6515f6	-0.22371659
36	0xbe125476	-0.14290032
37	0xbda508e2	-0.08058335
38	0xbe2641ef	-0.16236089
39	0x3d578f91	0.05262715
40	0xbdfb5e20	-0.12273812
41	0xbe883d03	-0.26609048
42	0x3e015e36	0.12633595
43	0xbde8069f	-0.11329388
44	0x3ddbb271	0.10727394
45	0x3f682d8f	0.90694517
46	0xbd4d139b	-0.050067525
47	0x3d7b77b9	0.061393473
48	0x3cc9fcb8	0.024656639
49	0x3d23a3b0	0.039951026
50	0x3e0b2f44	0.13592249
51	0xbead15af	-0.33805606
52	0xbe38d887	-0.18051349
53	0x3e0d0d2b	0.13774554
54	0xbe092ede	-0.13396785
55	0xbebd2b7d	-0.3694724
56	0x3da5623b	0.080753766
57	0xbe2de54c	-0.16982001
58	0x3e213f52	0.15746811
59	0x3e00e816	0.12588534
60	0x3b4fbba4	0.0031697536
61	0xbe852b5b	-0.2600964
62	0xbaab002e	-0.0013046318
63	0x3b7d4724	0.003864714
64	0x3d741111	0.05958659
65	0xbe1f6462	-0.15565637
66	0x3d935f2e	0.071958885
67	0x3d5dcf91	0.05415303
68	0x3e0f4f49	0.13995089
69	0xbd9b9832	-0.07597388
70	0x3e453f6e	0.19262478
71	0x3d7bf596	0.061513506
72	0xbd78ff4c	-0.060790345
73	0xbe3b5a79	-0.18296231
74	0xbf0f34db	-0.55940026
75	0x3e2ac634	0.16677171
76	0x3e670adc	0.22562736
77	0xbdb7200b	-0.089416586
78	0x3d255ca0	0.040371537
79	0x3dae34b0	0.08506143
80	0xbe340ae2	-0.17582276
81	0x3d6671e8	0.056260973
82	0x3f2199ff	0.63125604
83	0xbdc43a8f	-0.09581482
84	0xbe6e670b	-0.23281495
85	0x3df190fa	0.1179523
86	0xbddd7a07	-0.108142905
87	0xbe163395	-0.14668114
88	0x3d374822	0.044746526
89	0xbe56cd31	-0.20976712
90	0x3d147afa	0.036250092
91	0x3e407c8e	0.18797514
92	0xbd99e2a6	-0.07513933
93	0xbe198520	-0.1499219
94	0xbe3bc84a	-0.18338123
95	0xbdf05cf5	-0.1173648
96	0x3e310163	0.17285685
97	0x3d914987	0.07094102
98	0xbdaea699	-0.0852787
99	0xbe6d4ac1	-0.23173048
100	0xbdfe037e	-0.1240301
101	0xbe8a2f3f	-0.2698917
102	0xbd47f4e8	-0.048817545
103	0x3d71994a	0.05898408
104	0x3d8e3893	0.069443844
105	0xbd88aefb	-0.06674
106	0x3dc62d87	0.096766524
107	0xbc599168	-0.013279296
108	0x3e16ef12	0.14739636
109	0x3da88f66	0.08230476
110	0xbe41da49	-0.18930925
111	0xbe5a8f60	-0.21343756
112	0x3d15c9b4	0.036569312
113	0x3e008900	0.12552261
114	0x3e4996b4	0.19686395
115	0xbe1fa259	-0.15589274
116	0xbdd3fce3	-0.10350969
117	0x3d4315b0	0.047628105
118	0xbcacc366	-0.021089267
119	0x3dcda7cb	0.100417696
120	0x3d1a68b6	0.037697516
121	0xbe62591b	-0.22104304
122	0x3d93dea7	0.07220202
123	0xbeb3a344	-0.350855
124	0xbd919633	-0.07108726
125	0xbd938b6e	-0.072043285
126	0x3d236412	0.039890356
127	0x3dd6cc3a	0.10488172
128	0x3db634a0	0.08896756
129	0x3cbc2412	0.022966418
130	0x3f4c9699	0.79917294
131	0xbd9826e3	-0.07429292
132	0xbe8aaf66	-0.27086943
133	0x3c483d8b	0.012221704
134	0xbe74b90f	-0.23898719
135	0xbd7ce16d	-0.06173842
136	0x3e3129e6	0.17301139
137	0x3d4e401d	0.050354112
138	0xbe854204	-0.26026928
139	0x3e395e7a	0.18102446
140	0x3e20c7f8	0.15701282
141	0xbe8aec28	-0.27133298
142	0xbd2ad0ad	-0.041702915
143	0xbe3f5f0e	-0.18688604
144	0x3e9ebb56	0.310023
145	0xbe1fd766	-0.15609512
146	0xbdbd67c8	-0.0924831
147	0xbe8ac32f	-0.27102038
148	0x3d79c04e	0.06097441
149	0x3d56a35b	0.05240188
150	0xbd8d4370	-0.06897628
151	0xbdd67ae2	-0.10472657
152	0x3d509362	0.050921805
153	0x3d8f6d87	0.070033126
154	0x3d54cd36	0.051953517
155	0x3e52f60c	0.20601672
156	0x3d95b4a6	0.073098466
157	0x3dae4680	0.085095406
158	0x3d210ded	0.03931992
159	0x3e1f2387	0.15540896
160	0xbd966814	-0.0734407
161	0xbe487b32	-0.19578245
162	0xbe51297d	-0.20425983
163	0xbe298f3e	-0.16558549
164	0x3db133dd	0.0865247
165	0xbe0611e2	-0.13092759
166	0x3e31c3d6	0.17359862
167	0x3cd6a4aa	0.026201565
168	0xbe694283	-0.22779278
169	0xbdc2d2c8	-0.095128596
170	0x3cade6a2	0.021228138
171	0x3c7c11fc	0.015385147
172	0x3de64b98	0.11244887
173	0x3d82e0e8	0.06390554
174	0x3de683db	0.11255618
175	0x3e0e4aff	0.13895796
176	0x3dffc8eb	0.12489494
177	0xbe9e0f8b	-0.30871233
178	0xbd938b03	-0.07204249
179	0x3e495c7f	0.1966419
180	0x3d275748	0.040854722
181	0x3e8d3d15	0.27585664
182	0xbd0fb4e8	-0.035084635
183	0x3e71dd7c	0.23619646
184	0x3ea04632	0.31303555
185	0xbd866b95	-0.065634884
186	0xbd9c2ea6	-0.07626085
187	0xbe7151d1	-0.23566367
188	0xbdd90080	-0.105957985
189	0xbdf75db1	-0.12078417
190	0xbe21ec67	-0.15812837
191	0xbdce693d	-0.10078666
192	0xbeac1ec3	-0.3361722
193	0x3db70fc3	0.08938553
194	0xbacaca7e	-0.0015471724
195	0xbe7617ac	-0.24032468
196	0x3df4eba1	0.11959005
197	0x3d1441dd	0.036195625
198	0x3e23b46a	0.15986791
199	0x3e69f85c	0.22848648
200	0x3e8d9d61	0.27659133
201	0x3dd8467e	0.1056032
202	0x3dcd061f	0.10010933
203	0x3dca5e84	0.09881309
204	0xbdfd9c37	-0.12383311
205	0xbdfa787b	-0.12230011
206	0xbe4bd830	-0.19906688
207	0x3dd6bbbb	0.104850255
208	0xbe809c6e	-0.25119346
209	0xbdb0b3d1	-0.08628047
210	0x3e48519e	0.19562384
211	0xbea60ac7	-0.32430097
212	0x3df13f64	0.11779669
213	0xbdab6030	-0.08367956
214	0x3bb38acf	0.0054791938
215	0x3d045ed5	0.032317
216	0x3d8233b6	0.06357519
217	0x3e221522	0.15828374
218	0x3dd9a58a	0.10627277
219	0x3e970cb6	0.29501885
220	0x3dc947e4	0.09828165
221	0x3e3997bb	0.18124287
222	0x3e24e310	0.16102242
223	0x3d8738ef	0.06602656
224	0x3d55c314	0.052187994
225	0x3c97e709	0.018542783
226	0xbe6a3317	-0.22871052
227	0xbda93c66	-0.08263473
228	0xbe77ddaa	-0.24205652
229	0x3ddbcf70	0.10732925
230	0x3c9502ce	0.018189814
231	0x3e24c28a	0.16089836
232	0x3e17745b	0.1479048
233	0x3da97460	0.0827415
234	0xbeebcbde	-0.46053976
235	0xbdf8497e	-0.121233925
236	0xbec3d0bd	-0.38245192
237	0xbe022b1d	-0.12711759
238	0x3c6b35d0	0.014356092
239	0x3d4bf504	0.049794212
240	0x3d63eefd	0.05564784
241	0xbe759071	-0.23980881
242	0x3dadb249	0.08481271
243	0xbeb38d42	-0.3506871
244	0x3d59488e	0.05304771
245	0x3e100a25	0.1406637
246	0x3ca0c80a	0.019626636
247	0xbc9e556c	-0.019327842
248	0xbd49fdab	-0.049314182
249	0x3d46ea26	0.048563145
250	0x3e6c6335	0.2308472
251	0x3e0c7b47	0.13718902
252	0x3d968d07	0.073511176
253	0x3d84c684	0.06483176
254	0xbe321d96	-0.17394099
255	0xbd17dbcb	-0.037074845

actor.0.weight f4 [512, 33]
0	0x3ee864bc	0.45389354
1	0x3e0cd6ab	0.13753764
2	0x3e6d35b2	0.23165014
3	0x3e8349c3	0.25642213
4	0x3ea29f5c	0.31762207
5	0xbf0f081d	-0.55871755
6	0x3e70684f	0.2347729
7	0x3e444e91	0.19170596
8	0x3e111ab7	0.14170347
9	0xbde0e993	-0.10982051
10	0xbd4a4273	-0.049379777
11	0xbe52da41	-0.2059107
12	0xbe07c17d	-0.13257404
13	0xbd7ff792	-0.06249196
14	0xbe95f6ef	-0.29289958
15	0xbdac5012	-0.0841371
16	0xbdc67d69	-0.09691889
17	0xbe51b6a2	-0.20479825
18	0x3e4cd8a2	0.20004514
19	0xbda5304c	-0.080658525
20	0xbde93ec4	-0.11388925
21	0xbdaf226e	-0.08551489
22	0x3ea51eb5	0.3224999
23	0x3e4312cd	0.1905014
24	0xbd5d7110	-0.054062903
25	0xbe08cd08	-0.13359463
26	0xbe90e0b7	-0.28296444
27	0x3d460e75	0.04835363
28	0x3da76851	0.08174194
29	0x3da842e4	0.082158834
30	0xbea3aaeb	-0.31966338
31	0xbd21ef14	-0.039534643
32	0x3f817017	1.0112332
33	0x3e304a8a	0.17215934
34	0x3e00fe4b	0.12597005
35	0x3e08d0cb	0.13360898
36	0xbde7d67b	-0.11320206
37	0xbe7cf173	-0.2470148
38	0xbe87639e	-0.2644319
39	0xbe1a166a	-0.15047613
40	0xbd12c984	-0.03583671
41	0x3eb61d2f	0.3556914
42	0xbd15cea7	-0.036574032
43	0xbedf054f	-0.43558738
44	0xbd8873de	-0.06662725
45	0xbe5a2acf	-0.21305393
46	0xbc2a111f	-0.010380059
47	0x3e14653d	0.14491744
48	0xbe8a8b5b	-0.27059445
49	0xbf103013	-0.56323355
50	0xbee3f05e	-0.44519323
51	0xbe1e066b	-0.15432136
52	0xbd9d385e	-0.07676767
53	0xbeb82960	-0.35969067
54	0x3e3ec8f9	0.18631352
55	0x3e94cad3	0.29060993
56	0x3d34a88b	0.044106048
57	0xbe1a78a2	-0.1508508
58	0xbd05f5b4	-0.032705024
59	0xbd80d538	-0.06290668
60	0x3f3b5ef4	0.7319176
61	0xbc1ec1f9	-0.009689801
62	0xbd5e2114	-0.054230765
63	0xbf0b6768	-0.5445466
64	0x3e276080	0.16345406
65	0xbde41c63	-0.11138227
66	0xbe47e2d9	-0.1952013
67	0x3ecd640a	0.40115386
68	0xbda02047	-0.078186564
69	0xbeceda9a	-0.40401155
70	0xbd8c06f1	-0.068372615
71	0xbef8e9b7	-0.4861581
72	0xbda03245	-0.07822088
73	0x3eccd891	0.40008977
74	0x3c89995d	0.016796762
75	0x3eb6db00	0.3571396
76	0x3e03e1da	0.12879124
77	0xbd275893	-0.040855955
78	0xbe521305	-0.20515068
79	0x3e82b59f	0.2552919
80	0xbda189ed	-0.078876354
81	0x3ead436c	0.338405
82	0x3e861e98	0.26195216
83	0x3e0cc496	0.13746867
84	0x3eb53055	0.35388437
85	0x3f122afc	0.5709684
86	0xbe68ab4b	-0.22721593
87	0xbe0c6327	-0.13709699
88	0x3e4fc467	0.20289765
89	0x3e34fb9e	0.1767411
90	0xbe11fbf9	-0.14256276
91	0x3ba99434	0.005175138
92	0xba917caf	-0.0011099781
93	0x3f158587	0.5840687
94	0xbe1be871	-0.15225388
95	0xbcc43d08	-0.023954883
96	0xbf00751b	-0.5017869
97	0xbe12d6eb	-0.14339797
98	0xbdf54a85	-0.11977104
99	0x3d94a288	0.07257563
100	0x3e1b617d	0.15173908
101	0x3e78c4ae	0.24293777
102	0xbf36bac1	-0.71378714
103	0x3e73a42f	0.237931
104	0xbf6483d1	-0.89263636
105	0xbeb09895	-0.3449141
106	0xbe13c4b3	-0.14430504
107	0x3e0cace2	0.13737825
108	0xbd2d8bd1	-0.042369667
109	0xbe3baaf4	-0.18326932
110	0x3e92e74d	0.28692093
111	0xbbd88f8b	-0.0066089085
112	0xbe91c85e	-0.2847318
113	0x3ec4564d	0.38347092
114	0x3dfa842d	0.12232242
115	0x3e25d330	0.16193843
116	0xbb639683	-0.0034727163
117	0x3e71da70	0.23618484
118	0x3e2a9108	0.16656888
119	0xbddfc55d	-0.10926316
120	0xbd944d2a	-0.072412804
121	0x3e8dd66f	0.27702662
122	0xbe2b3ce5	-0.16722448
123	0xbdd05957	-0.1017329
124	0xbb7c7be0	-0.0038525984
125	0xbd0d5900	-0.034508705
126	0x3f0d93cb	0.5530364
127	0xbe67f377	-0.22651468
128	0xbc603a50	-0.013685778
129	0xbf093267	-0.5359253
130	0xbd321060	-0.043472648
131	0x3eba1182	0.36341482
132	0x3c4a6d26	0.012355125
133	0xbd661e99	-0.056181524
134	0xbe51edd7	-0.20500885
135	0xbb8d22ae	-0.0043071127
136	0x3e0c36c3	0.13692765
137	0x3f258d5d	0.6466883
138	0x3e8fe5c5	0.28104988
139	0xbf07e8ed	-0.5308979
140	0x3d1397ef	0.036033567
141	0xbed2edb6	-0.41196984
142	0xbe88a655	-0.266894
143	0xbe31d276	-0.1736544
144	0x3ec15020	0.37756443
145	0x3d8e93cc	0.06961784
146	0x3e66b160	0.225286
147	0x3dba2f16	0.09091012
148	0x3e0b7dec	0.13622254
149	0x3f1313ae	0.57451904
150	0x3e7af22c	0.24506444
151	0xbf3b869a	-0.7325226
152	0xbcd3f065	-0.025871465
153	0xbe24b76a	-0.16085592
154	0x3e02f7ad	0.12789793
155	0x3d22e2b9	0.039767
156	0xbe052404	-0.1300202
157	0xbd4040ce	-0.046936803
158	0xbcdd5ab6	-0.027020793
159	0x3f242463	0.6411802
160	0x3e1293d3	0.14314203
161	0x3d87125a	0.06595297
162	0xbf00c1ef	-0.5029592
163	0xbddc7754	-0.107649475
164	0xbef475f7	-0.4774625
165	0xbd95853a	-0.073008016
166	0x3e836617	0.25663826
167	0x3e8e4aa4	0.2779132
168	0xbe8e5afb	-0.27803788
169	0xbd6032bf	-0.054735895
170	0x3ecb90ae	0.3975882
171	0x3e868e95	0.26280656
172	0x3ef3df04	0.47631085
173	0xbf00af72	-0.5026771
174	0x3d261bf1	0.04055399
175	0x3dcdf183	0.1005583
176	0xbc5365ec	-0.012902718
177	0xb9d09168	-0.00039781188
178	0xbc97bf27	-0.018523766
179	0x3db00d1a	0.08596249
180	0xbde6fa3f	-0.112781994
181	0xbe57ace2	-0.21062043
182	0xbe163beb	-0.14671294
183	0x3e162b9e	0.14665076
184	0x3e8208e1	0.253974
185	0xbee3a4ca	-0.44461662
186	0xbdee020a	-0.11621483
187	0x3dec1a73	0.11528482
188	0xbe997b26	-0.29976767
189	0xbe4c8dee	-0.19976017
190	0x3e67c702	0.22634509
191	0x3cf3f050	0.029777676
192	0x3f1524c8	0.5825925
193	0xbd9c65c5	-0.076365985
194	0xbe2fb2c0	-0.17158031
195	0xbf239d0a	-0.639115
196	0x3da9db84	0.082938224
197	0x3e637822	0.22213796
198	0xbdf21fb7	-0.118224554
199	0x3e661b0d	0.22471257
200	0xbed92550	-0.4241128
201	0xbe1ae138	-0.15124977
202	0xbe737aec	-0.2377736
203	0xbea3ade1	-0.31968597
204	0x3e7a646b	0.24452369
205	0x3db04e0f	0.086086385
206	0x3ddaf09f	0.10690426
207	0x3eadfc09	0.3398135
208	0xbdbfaa92	-0.093587056
209	0x3c97b934	0.018520929
210	0x3d856ad6	0.06514518
211	0x3e3d7359	0.18501033
212	0x3df55d27	0.11980658
213	0x3d844923	0.06459262
214	0x3e4cfbd3	0.20017938
215	0x3f25a126	0.6469902
216	0xbec87ae5	-0.3915626
217	0xbed3cd3b	-0.41367516
218	0xbe27421a	-0.1633381
219	0xbeeb85b8	-0.46000457
220	0x3e7dad94	0.24773246
221	0xbe47b16e	-0.19501278
222	0xbe9e4fdd	-0.30920306
223	0xbccba2e6	-0.02485795
224	0xbda8fed4	-0.082517296
225	0x3ecd0249	0.40040806
226	0xbd13ef93	-0.036117148
227	0xbc07b2b0	-0.0082823485
228	0xbf25e062	-0.64795506
229	0xbdea6bf0	-0.11446369
230	0xbd23bce1	-0.03997505
231	0x3c4416ed	0.011968357
232	0x3eab73d5	0.3348681
233	0x3d5a6d34	0.0533268
234	0xbf1c986e	-0.6117009
235	0x3e024a53	0.12723665
236	0xbd4ecf1d	-0.050490487
237	0x3e5d3bcf	0.21604846
238	0x3d63e0a2	0.05563415
239	0xbe848757	-0.25884506
240	0x3d903a17	0.0704233
241	0xbe87a7a9	-0.26495102
242	0xbd88cf02	-0.066801086
243	0xbe3935d5	-0.18086942
244	0xbdb34131	-0.08752669
245	0x3e2e2800	0.17007446
246	0x3ec0ed87	0.3768122
247	0xbf5f85b2	-0.8731338
248	0x3e724963	0.23660807
249	0xbecbafb2	-0.39782482
250	0x3e8b755e	0.27237982
251	0x3e95639e	0.29177564
252	0x3e6ae2ea	0.22938123
253	0x3e9b1513	0.30289516
254	0xbd849d3b	-0.06475302
255	0xbd74169c	-0.059591874

actor.0.bias f4 [512]
0	0xbd7ac3e7	-0.061221983
1	0xbf2f5f20	-0.68504524
2	0xbf1b6a59	-0.6070915
3	0xbf069f01	-0.5258637
4	0xbed85bca	-0.4225753
5	0xbf29aa82	-0.662758
6	0xbef9e7eb	-0.48809752
7	0xbf0feb9e	-0.562189
8	0xbf0bfa6e	-0.54679
9	0xbe8c470a	-0.27397949
10	0xbee14116	-0.4399497
11	0xbf05d279	-0.5227428
12	0xbf5f3902	-0.8719636
13	0xbf5e7e10	-0.86911106
14	0xbf55805b	-0.8339898
15	0xbf58c239	-0.8467136
16	0xbf182e63	-0.5944578
17	0xbea326c0	-0.318655
18	0xbf248600	-0.6426697
19	0xbea1cf67	-0.31603548
20	0xbf2a6f8b	-0.6657645
21	0xbeef7acb	-0.4677337
22	0xbeae4095	-0.34033647
23	0xbf096bb1	-0.5367995
24	0xbf083f53	-0.53221625
25	0xbf035b7e	-0.5131148
26	0xbf46f0f6	-0.7771143
27	0xbf3e5696	-0.7435087
28	0xbf01a34e	-0.5063981
29	0xbf3be7a4	-0.7340033
30	0xbe43219b	-0.19055788
31	0xbf051d8a	-0.519982
32	0xbf211ac1	-0.6293145
33	0xbf2587df	-0.6466045
34	0xbf43d27d	-0.76493055
35	0xbed309ea	-0.412185
36	0xbf27aa5f	-0.6549434
37	0xbde3414d	-0.110964395
38	0xbf2cb010	-0.6745615
39	0xbf03b4d2	-0.51447785
40	0xbf26766a	-0.65024436
41	0xbefbb935	-0.4916474
42	0xbf29fdd8	-0.6640296
43	0xbf210544	-0.6289866
44	0xbed16db8	-0.4090402
45	0xbf13ac44	-0.5768473
46	0xbec0a44e	-0.37625355
47	0xbf05b0e2	-0.52223027
48	0xbef91b94	-0.48653853
49	0xbefa9deb	-0.48948607
50	0xbf4fe222	-0.81204426
51	0xbf2333c6	-0.63750875
52	0xbf45f2b7	-0.7732348
53	0xbf002b8e	-0.5006646
54	0xbec83a63	-0.39107046
55	0xbeb76b4b	-0.35824046
56	0xbed64821	-0.41851905
57	0xbf244669	-0.6416994
58	0xbf48b778	-0.7840495
59	0xbf4ffd6a	-0.81246054
60	0xbf18ab00	-0.59635925
61	0xbf38ce0e	-0.72189415
62	0xbe840fba	-0.25793248
63	0xbf02e38a	-0.5112845
64	0xbf474887	-0.7784504
65	0xbf141361	-0.5784207
66	0xbf084a7a	-0.5323864
67	0xbf5935af	-0.8484754
68	0xbf1e061e	-0.61728084
69	0xbee73e7d	-0.45164862
70	0xbf2447d6	-0.6417211
71	0xbef4fa19	-0.4784706
72	0xbf4b1c2e	-0.79339874
73	0xbf03fd06	-0.5155796
74	0xbe349bce	-0.1763756
75	0xbf016606	-0.505463
76	0xbe96dbea	-0.29464656
77	0xbf202556	-0.6255697
78	0xbf422c8c	-0.75849223
79	0xbe968984	-0.2940179
80	0xbf199adb	-0.60001916
81	0xbf12288e	-0.5709313
82	0xbf1ec9c7	-0.6202664
83	0xbf499b00	-0.78752136
84	0xbf184628	-0.5948205
85	0xbebe1e47	-0.37132475
86	0xbf048d60	-0.5177822
87	0xbefc6a1a	-0.492997
88	0xbee05a49	-0.43818882
89	0xbefc088f	-0.4922528
90	0xbf05302f	-0.5202665
91	0xbf35ac6f	-0.7096624
92	0xbf0c94ca	-0.54914534
93	0xbf07a6bf	-0.5298881
94	0xbf02808e	-0.5097741
95	0xbf0ece0a	-0.5578314
96	0xbe592829	-0.21206726
97	0xbeba5fef	-0.36401317
98	0xbf02e300	-0.51127625
99	0xbeb8cacc	-0.36092222
100	0xbec1792b	-0.37787756
101	0xbe7053f4	-0.23469526
102	0xbf5ad284	-0.8547747
103	0xbf0c95ae	-0.54915893
104	0xbee3c8fa	-0.4448927
105	0xbf251296	-0.64481485
106	0xbf46a979	-0.77602345
107	0xbecb14a1	-0.39664176
108	0xbf1d7e34	-0.61520696
109	0xbf2dab9f	-0.6784
110	0xbf331186	-0.69948614
111	0xbf04c8ed	-0.5186909
112	0xbf40820d	-0.7519844
113	0xbed31d87	-0.41233465
114	0xbf030657	-0.5118155
115	0xbf1ce129	-0.6128107
116	0xbf485f60	-0.7827053
117	0xbe866d36	-0.26255196
118	0xbf24498c	-0.64174724
119	0xbebc0fec	-0.36730897
120	0xbf11f0b6	-0.5700792
121	0xbf124274	-0.5713265
122	0xbe8e10a5	-0.27747074
123	0xbf423e34	-0.75876164
124	0xbf293eca	-0.66111434
125	0xbf2406e3	-0.6407301
126	0xbeca7803	-0.39544687
127	0xbeeeb2a2	-0.4662066
128	0xbe9c49de	-0.30525106
129	0xbf058f8b	-0.52172154
130	0xbf054827	-0.5206322
131	0xbee13525	-0.4398586
132	0xbe6876f7	-0.22701631
133	0xbf35a02f	-0.70947546
134	0xbf013494	-0.5047085
135	0xbf3d64de	-0.73982036
136	0xbeeb7f1e	-0.4599542
137	0xbee6e392	-0.45095497
138	0xbf21cfd0	-0.6320772
139	0xbf67d65c	-0.9056146
140	0xbee5dc2c	-0.4489454
141	0xbf718e4f	-0.9435777
142	0xbf228795	-0.6348813
143	0xbf09cfe0	-0.5383282
144	0xbecfb5b3	-0.40568313
145	0xbee49dfa	-0.44651777
146	0xbed52fcd	-0.41638032
147	0xbeebdbe7	-0.4606621
148	0xbe9df4e0	-0.30850887
149	0xbf20747c	-0.6267774
150	0xbd62822a	-0.055299915
151	0xbf11b8a2	-0.5692235
152	0xbf4180af	-0.7558698
153	0xbe95d12c	-0.29261148
154	0xbf764438	-0.96197844
155	0xbef71386	-0.48257083
156	0xbf283102	-0.6569978
157	0xbf21fc0e	-0.6327523
158	0xbebccca8	-0.3687489
159	0xbef46c98	-0.477391
160	0xbf0c2bb3	-0.5475418
161	0xbf30d65e	-0.690771
162	0xbe616976	-0.22012886
163	0xbec5e37c	-0.3865012
164	0xbf3a2f0a	-0.72728026
165	0xbf581e2d	-0.84421045
166	0xbf15b475	-0.5847848
167	0xbf0f2248	-0.55911684
168	0xbe93e9e6	-0.28889388
169	0xbf4fcd5b	-0.8117272
170	0xbe62e634	-0.22158128
171	0xbf1812c9	-0.59403664
172	0xbf50196f	-0.8128881
173	0xbf3a6743	-0.72813815
174	0xbe919a68	-0.28438115
175	0xbf2f9eed	-0.68601876
176	0xbf321bcd	-0.6957367
177	0xbeca4b23	-0.3951045
178	0xbee1f548	-0.44132447
179	0xbf2ecd50	-0.6828203
180	0xbee9bce7	-0.45651934
181	0xbebf520c	-0.37367284
182	0xbf151f0f	-0.58250517
183	0xbf28c733	-0.65928954
184	0xbf3b0f3d	-0.73070127
185	0xba0ee321	-0.0005450715
186	0xbe90bb1f	-0.28267762
187	0xbeb305d4	-0.34965384
188	0xbec2f310	-0.38076067
189	0xbf0f8e68	-0.5607667
190	0xbf5eb560	-0.86995506
191	0xbf43bcc9	-0.7645994
192	0xbecefaef	-0.40425822
193	0xbea16520	-0.31522465
194	0xbf1de940	-0.61684036
195	0xbef01352	-0.4688974
196	0xbf3bfca0	-0.7343235
197	0xbf1df4ca	-0.61701643
198	0xbf39f54f	-0.72639936
199	0xbf5c25a7	-0.8599495
200	0xbf052ca4	-0.5202124
201	0xbf1fb8ec	-0.62391543
202	0xbf13ca4e	-0.5773057
203	0xbe3a1094	-0.18170387
204	0xbeaf4c99	-0.34238127
205	0xbf264227	-0.6494469
206	0xbf3b6e04	-0.73214746
207	0xbeac1469	-0.33609322
208	0xbf0834f4	-0.532058
209	0xbf2baa5b	-0.67056817
210	0xbf2dfa6c	-0.6796024
211	0xbedba88e	-0.42902035
212	0xbe890f01	-0.2676926
213	0xbf4e7bdd	-0.8065775
214	0xbf0ee0a7	-0.5581154
215	0xbec14ce8	-0.37753987
216	0xbef4b3d7	-0.47793457
217	0xbf160885	-0.5860675
218	0xbeae9efc	-0.3410567
219	0xbf67befb	-0.9052579
220	0xbf400697	-0.75010055
221	0xbf2e7b54	-0.68156934
222	0xbe6a6986	-0.22891816
223	0xbe85b13a	-0.26111776
224	0xbf1df22f	-0.6169767
225	0xbf423116	-0.7585615
226	0xbf38da6d	-0.7220829
227	0xbf3779ca	-0.7167021
228	0xbf3924ae	-0.72321594
229	0xbf46ac71	-0.77606875
230	0xbf5fa248	-0.87356997
231	0xbf08b00a	-0.53393614
232	0xbf109f81	-0.56493384
233	0xbe37fa97	-0.17966686
234	0xbf0d63a1	-0.55230147
235	0xbe845646	-0.2584707
236	0xbf029090	-0.51001835
237	0xbf2c44c4	-0.6729243
238	0xbf255933	-0.6458923
239	0xbedd3a1d	-0.432084
240	0xbe79183c	-0.24325651
241	0xbee64910	-0.44977617
242	0xbf0bf8a9	-0.546763
243	0xbf49a895	-0.7877286
244	0xbf1b5070	-0.6066961
245	0xbf09e6cc	-0.53867793
246	0xbf01b8fe	-0.506729
247	0xbe0b0100	-0.135746
248	0xbef649c9	-0.4810317
249	0xbec64672	-0.3872562
250	0xbf3051c4	-0.68874764
251	0xbf1f2b24	-0.621752
252	0xbf30d159	-0.6906944
253	0xbf1d6361	-0.61479765
254	0xbebe43e2	-0.37161165
255	0xbe882cee	-0.2659678

actor.2.weight f4 [4, 512]
0	0xbdd0ae66	-0.10189514
1	0x3ca16c6c	0.01970502
2	0x3bcee0e0	0.0063134283
3	0x3d3e59c1	0.046472315
4	0x3e38e663	0.18056636
5	0x3c25184b	0.010076593
6	0x3aaa09d7	0.0012972903
7	0xbe56ec9e	-0.209887
8	0x3e66655e	0.22499606
9	0xbdfe84b0	-0.12427652
10	0xbbc43490	-0.0059877113
11	0x3dc25614	0.09489074
12	0x3eb3c1e3	0.3510886
13	0xbdf2c1a7	-0.118533425
14	0xbe20ae87	-0.15691577
15	0xbe0c6e89	-0.13714041
16	0x3e2e25bb	0.1700658
17	0xbe940830	-0.28912497
18	0xbd6f6631	-0.058447067
19	0xbca999a5	-0.020703146
20	0x3d275650	0.0408538
21	0xbd8071f6	-0.06271736
22	0xbddd9dfe	-0.1082115
23	0x3c708e6f	0.014682396
24	0xbe8b4876	-0.2720372
25	0xbe72d4cb	-0.23713987
26	0x3e554968	0.20828784
27	0x3ea194b7	0.31558773
28	0x3d55e6f0	0.052222192
29	0xbe8ec419	-0.27883986
30	0x3dd7dc82	0.105401054
31	0x3bb23b99	0.0054392335
32	0x3e68f9b7	0.22751509
33	0x3e66a16c	0.22522515
34	0xbe4b6b5e	-0.19865176
35	0x3c5b6bad	0.013392371
36	0x3c4a12b9	0.012333565
37	0xbd1da1ca	-0.038484372
38	0xbe370e96	-0.17876658
39	0xbcb1da68	-0.02171059
40	0xbdfded08	-0.12398726
41	0x3d825422	0.06363703
42	0xbdc7763c	-0.09739348
43	0x3d62f1f6	0.055406533
44	0xbe85fc61	-0.26169112
45	0x3d9ebd27	0.07750922
46	0x3e1e2943	0.15445428
47	0xbe080ddf	-0.13286541
48	0xbe0148c0	-0.12625408
49	0xbcce6553	-0.0251948
50	0x3e3162bf	0.17322825
51	0xbd42dc98	-0.047573656
52	0xbd69120c	-0.056901976
53	0x3d4e1bd8	0.050319523
54	0xbdb90db1	-0.090358146
55	0xbd55d5f5	-0.052206
56	0xbdd50ff0	-0.104034305
57	0x3e60511b	0.2190594
58	0xbe03c391	-0.12867571
59	0x3ed814b9	0.4220331
60	0x3d7f788e	0.06237083
61	0x3eb8f4b1	0.36124185
62	0xbdfd36fd	-0.12364004
63	0x3d42df1d	0.04757606
64	0xbe644cc4	-0.22294909
65	0xbbc9a17b	-0.006153283
66	0x3d83d728	0.06437522
67	0xbeda47bb	-0.4263285
68	0xbe4dd619	-0.20101203
69	0x3da4c11a	0.08044644
70	0x3dae7449	0.085182734
71	0xbdb302b2	-0.087407485
72	0x3e67a94d	0.22623177
73	0x3de6aa4c	0.1126295
74	0xbd374948	-0.04474762
75	0xbde52ea1	-0.111905344
76	0x3d1b2590	0.03787762
77	0x3e32b58f	0.17452072
78	0xbe2f3f1b	-0.17113917
79	0xbd833041	-0.06405688
80	0xbd078cd6	-0.033093296
81	0x3d056837	0.03257009
82	0x3e3f8d3e	0.18706223
83	0x3d597fb8	0.053100318
84	0xbe1f0511	-0.15529276
85	0x3e25dec5	0.16198261
86	0xbe0031e3	-0.1251903
87	0xbd8ad9b8	-0.06779808
88	0xbe4346a5	-0.19069918
89	0x3e7859f7	0.24253069
90	0x3dc3f50b	0.095682226
91	0x3db12224	0.0864909
92	0x3e5be071	0.21472336
93	0xbcfd832a	-0.030946333
94	0xbd811c78	-0.06304258
95	0x3e0b6c0e	0.13615438
96	0xbdf13cf4	-0.11779204
97	0x3e1a69c3	0.15079407
98	0x3db954bb	0.09049364
99	0xbd6624e0	-0.05618751
100	0xbe452c0f	-0.19255088
101	0xbdf43a4c	-0.11925182
102	0x3d0b6629	0.034032974
103	0x3ea81d1e	0.32834715
104	0x3d8e88cb	0.06959685
105	0xbc1b2901	-0.009470225
106	0x3dfed732	0.12443389
107	0x3e9bb4c2	0.30411345
108	0x3e62c36b	0.22144859
109	0x3d34075a	0.043952323
110	0x3d89a43c	0.06720778
111	0xbe9889e9	-0.29792717
112	0x3e9ee137	0.310312
113	0x3e8cd653	0.27507266
114	0xbe03a156	-0.12854514
115	0xbcf0b59c	-0.029383473
116	0xbdcda549	-0.10041291
117	0x3de824c0	0.113351345
118	0xbe983cc2	-0.29733855
119	0xbc888e29	-0.01666935
120	0xbe8ccd14	-0.27500212
121	0xbdcafec0	-0.09911871
122	0xbe4eb00f	-0.20184349
123	0x3d90360d	0.07041559
124	0xbe8b05cf	-0.2715287
125	0x3dbdceed	0.092679836
126	0xbd626dc1	-0.05528045
127	0x3c0e566b	0.008687596
128	0xbde988ee	-0.114030704
129	0xbe064cb5	-0.13115199
130	0xbe684578	-0.2268275
131	0xbe43a5be	-0.19106194
132	0x3c06cd5d	0.008227673
133	0xbd583686	-0.052786373
134	0x3d9bcaa7	0.07607012
135	0xbe03142a	-0.1280066
136	0xbd86c4dc	-0.06580517
137	0xbe1a7bc5	-0.15086277
138	0xbc97ae27	-0.01851566
139	0xbe658c9e	-0.22416922
140	0x3d8d050c	0.06885728
141	0x3dc22839	0.09480328
142	0xbe89247d	-0.2678565
143	0xbb844cac	-0.0040374603
144	0x3db579b6	0.08861105
145	0x3e240ee8	0.16021311
146	0x3da60e96	0.08108251
147	0x3d913c09	0.07091529
148	0x3d91d8d0	0.07121432
149	0x3d95bbea	0.073112324
150	0xbdc5577b	-0.09635826
151	0x3d4209dc	0.047372684
152	0x3e651fb0	0.22375369
153	0xbe95ac09	-0.29232815
154	0xbce6c529	-0.028170185
155	0x3e01051c	0.12599605
156	0xbdc329bc	-0.095294446
157	0x3e9cab19	0.30599287
158	0xbe10c75e	-0.14138553
159	0x3dc2fde1	0.0952108
160	0x3de3713e	0.111055836
161	0x3e5dbf49	0.21655001
162	0x3d88dae4	0.06682375
163	0xbd3332ec	-0.043749735
164	0x3e63ca8d	0.22245236
165	0xbf24ad00	-0.6432648
166	0x3e7a7e9c	0.2446236
167	0x3dcdf0a5	0.10055665
168	0x3dfba1ef	0.12286746
169	0xbea60ec8	-0.32433152
170	0xbe1594ed	-0.14607592
171	0x3e3be1f5	0.18347915
172	0x3decbb88	0.11559206
173	0x3de9646c	0.11396107
174	0x3e17b1da	0.14813939
175	0x3c5945db	0.013261284
176	0x3e592f2e	0.21209404
177	0xbc242367	-0.010018206
178	0x3dd67bc3	0.104728244
179	0x3e1cdcc8	0.15318596
180	0xbccf9edd	-0.025344307
181	0xbe00698f	-0.12540267
182	0x3c2d36da	0.01057216
183	0x3dd19123	0.10232761
184	0xbe243906	-0.16037378
185	0x3d835014	0.06411758
186	0xbe0d89eb	-0.13822143
187	0xbe09199d	-0.13388677
188	0x3cd062ae	0.02543768
189	0x3d199379	0.037494157
190	0xbe8192bb	-0.2530726
191	0xbe7c9bc4	-0.24668795
192	0x3e419781	0.1890545
193	0x3d98a6d4	0.07453695
194	0xbc74d8c6	-0.014944261
195	0xbe158f69	-0.14605488
196	0xbe449236	-0.191964
197	0x3da4f410	0.08054364
198	0xbd8fe629	-0.070263214
199	0xbea6f40c	-0.32608068
200	0x3d1ff7d7	0.039054718
201	0x3d9e6030	0.0773319
202	0xbdf3bce2	-0.11901261
203	0xbd09883b	-0.033577185
204	0xbc8c89ef	-0.017155616
205	0xbe7bd596	-0.24593195
206	0x3d79dab0	0.060999572
207	0xbde92370	-0.11383712
208	0x3e202ef6	0.15642914
209	0xbe93ae18	-0.2884376
210	0x3e1e7502	0.15474322
211	0x3e291a4e	0.1651394
212	0x3da540d6	0.08069007
213	0x3d6abf9f	0.05731165
214	0x3e6bcf69	0.2302834
215	0x3e245189	0.16046728
216	0xbd33fe8f	-0.043943938
217	0xbc2b957e	-0.010472653
218	0xbde95ccf	-0.11394655
219	0xbe08f7f7	-0.13375841
220	0x3e150a66	0.14554748
221	0x3e6745ad	0.22585173
222	0xbd8605a5	-0.06544045
223	0x3d122298	0.035677522
224	0x3e83ead3	0.25765094
225	0xbe39a9e2	-0.18131211
226	0xbd4c5b72	-0.049891897
227	0xbcf93db1	-0.030424925
228	0xbdbc6acb	-0.09200057
229	0xbd8707df	-0.06593298
230	0x3e8625a2	0.26200587
231	0xbd5423dd	-0.051792014
232	0x3bc40cd3	0.005982974
233	0x3c9f0a5a	0.019414116
234	0xbddf8c10	-0.10915387
235	0x3e123e33	0.1428154
236	0xbd6d0dc9	-0.057874475
237	0xbe84250a	-0.2580951
238	0x3bbf059b	0.0058295256
239	0xbd402549	-0.046910558
240	0xbe35c930	-0.17752528
241	0x3e5f4931	0.21805264
242	0x3d72342d	0.05913179
243	0xbd387e76	-0.045042478
244	0xbc3f3b55	-0.011671861
245	0x3cd73824	0.026271887
246	0xbe0d5501	-0.13801958
247	0x3ddc706c	0.1076363
248	0x3db92cff	0.090417854
249	0xbd0167d8	-0.031593174
250	0xbd1cf139	-0.038315985
251	0xbe18682a	-0.14883485
252	0x3e0f47da	0.13992253
253	0x3e822563	0.2541915
254	0xbe051885	-0.12997635
255	0x3ce001bb	0.027344575

actor.2.bias f4 [4]
0	0x3ced3bdf	0.028959213
1	0x3bd13f85	0.006385746
2	0x3d5b5bd2	0.053554364
3	0x3cfcf210	0.030877143
